actor_checkpoint.pth (torch_old, 554028 bytes, 14 tensors)

fc1.weight f4 [400, 33]
00000000: 81ce b3bd 848c 43bd ac42 bebd 7a30 04be
00000010: 1c20 b4be 235e a93d 0d70 ef3d 4dd2 abbb
00000020: 95aa 023d 912d 1b3d 97b6 303d 2cb7 af3c
00000030: 1f3b 9b3b 8172 2e3e 2c97 ec3c 4dc4 d83c
00000040: afa5 11be 108a 9b3d f41c 0bbe 896f e4bc
00000050: 7b4e 3abd 7ba3 58bd 5489 dbbc 0753 4b3c
00000060: 15bc 33bc b4c7 973c a6de 97bd 4214 6c39
00000070: c458 45bc 0da6 0bbd a0df 2e3c 00c8 7939
00000080: fc2e 4fbf 2c5e 5c3d 8b03 103d 8809 d63d
00000090: b2cd 6a3e 8c7c 123e f494 64be 21d4 ffbd
000000a0: 6545 0dbe b84c 0e3d 5df7 26bd 3517 3bbd
000000b0: 84b6 87bd 66f5 1ebd 02b1 aabd c3ab fbbd
000000c0: c1e4 303b d894 113e b24e a1be 940a 513f
000000d0: 4487 c33d e060 9d3d e503 67bd 7beb 21be
000000e0: ce22 0f3d 0514 0bbd 6734 cebc ac4c 363d
000000f0: d80f d83c 7451 333d 6052 d0ba 0022 8d3c
00000100: 06c8 f43c 5d2f bf3b ef4e b0bd 490b 273e
00000110: 0bf7 103e b9c3 0d3d e15e af3c e6fe e3be
00000120: fb6e 523e 1833 cc3d 9340 93bc ec37 74bd
00000130: 467f 98bb d680 3a3d be6c 783c 2c34 4b3c
00000140: c731 56be 716a 4cbe c1c2 30be 72be d9be
00000150: aa05 463e 37d4 cc3d b331 80bd b896 0bbe
00000160: 9deb 88bd a319 043d 0ded c4bd 1641 9a3c
00000170: 19f5 3cbc a0aa 8ebc 8155 8f3d 58a4 823b
00000180: b637 4d3d 9aa7 edbc eefe 73bd b47d 5dbe
00000190: 3e6c ff3c f943 89bd 3ba4 0b3f 642f 763c
000001a0: d2a0 5b3e dc58 a93c f346 fe3b 37cc 173c
000001b0: a5e7 be3d 7942 5f3d facd 3b3d 4f0d dbbc
000001c0: 52bd 523e a058 053d ebca 3d3d 8558 943d
000001d0: 36b0 1dbe 8be0 d2be dc17 d13b 2210 0c3c
000001e0: 3617 98bd b2b0 6f3d e39d cc3d cb2d debb
000001f0: 108f 2a3d b34c 6ebd d620 f63c 2250 263c
00000200: 52ba 4abd 391f fdbc 4c2f 80bc fe22 e2be
00000210: 0c97 89bc 02b2 7bbe da67 283c 9152 063e
00000220: b313 4bbc d61d 95be 2ebf 4bbe be19 2abe
00000230: 14d3 99bc 746b 67bd 9176 eabd be57 02be
00000240: 9e3a e03d 0790 153d 0ea9 f7bb f517 133e
00000250: 3cb2 51be 482e 7ebe 5020 393e 7bb5 fcba
00000260: 35be 4c3d 77d3 c8bd 4da8 713c 2a74 023d
00000270: 1683 363c 753e 063e 46f8 2bbd 4e00 803c
00000280: e89d 32bd 95fe 0c3d 8f78 3b3c 422b f83c
00000290: 1f24 fd3e 1ef8 853d 27ed 64bd f5b6 1f3d
000002a0: f3a4 0cbd 113f a6bd 5928 633e 7057 223c
000002b0: 68c6 063d d119 5b3c 3ebb 15be 13b2 42bd
000002c0: 4aab 0a3d 5a73 2abd 7133 bfbd 6adc 1ebd
000002d0: c592 a7bd 2435 7e3e 5c05 ac3d fe21 cdbe
000002e0: 2270 703c 314b 68bb 42f1 943c fa8b 953c
000002f0: 590f 11bd 3bde 66bc 9618 d1bd 2e62 8c3d
00000300: a407 0dbc 3428 063d 8aee c6bc fc30 5dbc
00000310: 99e3 183d 4ea5 7dbf f1ac 913d 7eac b0bd
00000320: 4b58 bc3c 939c 3e3f ba71 2b3e 13da cc3d
00000330: 473b dabc fb59 7a3a c0a3 9c3d 0a40 08be
00000340: 3a64 d7bb 006e 07bd 2411 3bbd bb7b 19bd
00000350: 033f 39bd 3daa 43bb b19b 0f3e fcfb 0cbe
00000360: 48d5 bcbe 555a b03e eb9f 97bd aeb4 873c
00000370: ef73 1a3d 850d 07bc cb61 3e3d 459d 213d
00000380: d463 243e e4a6 37bd 3d9b 483d 907b c3bb
00000390: bcb8 6cbc 9d90 213d 00f6 dabe 29fa 94bd
000003a0: 148c d7bd 54e7 14bd c2de 5b3d 1111 213d
000003b0: cc2c fa3e e4d2 093e e9a2 aabd 6342 303d
000003c0: b9e6 773d de1b ebbc ee9a 7c3c 6149 e3bb
000003d0: 496d 51bd df17 9e3d 63ad c4bd 5c5b 6ebe
000003e0: 8206 49be fd42 b2be f435 92bd ce78 213d
000003f0: 8a77 9e3c b7f2 1abe c98d 83bd 820d 623d
-0.08779622 -0.047741428 -0.092900604 -0.12909117 -0.35180748 0.08269908 0.11691294 -0.0052435757
0.03190096 0.037885252 0.04314288 0.021449648 0.0047372724 0.17035867 0.028880678 0.026460791
-0.1422336 0.07594693 -0.13585263 -0.027885215 -0.045485 -0.052890282 -0.026798882 0.012409932
-0.010970135 0.018527843 -0.07415514 0.0002251426 -0.012045089 -0.034093905 0.010673434 0.00023820996
-0.8093107 0.053800747 0.03515963 0.10451037 0.22930029 0.14305323 -0.22322446 -0.12491632
-0.13796003 0.034741133 -0.040763248 -0.04567643 -0.06626609 -0.03880825 -0.08334543 -0.1228862
0.0026991817 0.14216936 -0.31505352 0.81656766 0.09547284 0.07684493 -0.0564002 -0.15812485
0.0349453 -0.03395464 -0.025171472 0.044506714 0.026374742 0.04377885 -0.001589369 0.017228127
0.029880535 0.0058345036 -0.086088054 0.16312899 0.1415674 0.034610484 0.021407546 -0.4453041
0.20550148 0.09970683 -0.017975127 -0.059623644 -0.004653844 0.045533024 0.015162645 0.012402575
-0.20917426 -0.19962479 -0.17261793 -0.4252811 0.19338098 0.10001414 -0.062594794 -0.13631713
-0.06685565 0.03225101 -0.09615526 0.018829864 -0.011533045 -0.017415345 0.069987305 0.0039868765
0.05010196 -0.029010583 -0.05956929 -0.21629983 0.031179544 -0.06702418 0.5454747 0.015025947
0.21448067 0.020672254 0.0077599226 0.009264997 0.093215264 0.054506753 0.04585073 -0.026739744
0.20580032 0.032555223 0.046336096 0.07243446 -0.1539925 -0.41186938 0.006381018 0.008548768
-0.07426302 0.05851812 0.09991052 -0.0067803613 0.04164034 -0.058178615 0.030044954 0.010150941
-0.049494095 -0.030898677 -0.015647553 -0.44167322 -0.016795658 -0.24579623 0.010278666 0.13117434
-0.012394833 -0.29124326 -0.19897148 -0.16611382 -0.018777408 -0.05649896 -0.11448396 -0.12728783
0.1094868 0.03651431 -0.0075579947 0.14364608 -0.20478147 -0.24822342 0.18078732 -0.001928016
0.049986083 -0.09805959 0.014749599 0.031849064 0.011139652 0.13109763 -0.04198482 0.015625145
-0.043607622 0.034422476 0.011442318 0.030294064 0.4944162 0.06541465 -0.05589023 0.03899284
-0.034336995 -0.08117498 0.2218336 0.009908542 0.03290406 0.013372854 -0.14622208 -0.047533106
0.03385476 -0.041613914 -0.093359835 -0.038784422 -0.08182291 0.24824959 0.0839946 -0.40064996
0.014675172 -0.0035445208 0.018181447 0.018255223 -0.035415027 -0.01409107 -0.102097675 0.06854664
-0.008607779 0.032753184 -0.024283666 -0.013500448 0.03732643 -0.9908036 0.07113064 -0.0862665
0.02299132 0.74457663 0.16742602 0.10002532 -0.026639594 0.00095501513 0.0764842 -0.13305679
-0.0065732272 -0.03306389 -0.045670643 -0.037471514 -0.04522611 -0.0029856109 0.14024235 -0.13768
-0.3688147 0.34443918 -0.07403549 0.016565647 0.03770822 -0.008242969 0.04647998 0.039456625
0.16053706 -0.044836894 0.04897617 -0.0059656575 -0.014448341 0.039444555 -0.42765808 -0.07274277
-0.10524765 -0.036353424 0.053679235 0.039322916 0.48862302 0.13459355 -0.08331854 0.04303206
0.06052277 -0.028699812 0.0154177975 -0.0069362377 -0.051129613 0.07719397 -0.096033834 -0.23277038
-0.19631389 -0.34816733 -0.07139197 0.03942185 0.01934411 -0.15131651 -0.06423528 0.055188663

fc1.bias f4 [400]
00000000: 0bf0 483d 2489 1e3e a11d bc3d 7841 f13c
00000010: d7a0 f1bd 7242 ee3d 6111 0b39 b61b 6d3d
00000020: bf5e abbd 54c1 13be c529 1fbe 4cec 54bd
00000030: 7a91 04be 6d66 1bbe a58d 2f3e 9489 8f3d
00000040: ef69 bdbc 4f28 1ebe 6832 fdbd 652b 28be
00000050: e3ff 31bd e5a6 fd3d c24d b8bc dfb8 1f3d
00000060: f249 4fbc f066 d83d 5064 2a3e d826 92bd
00000070: 4b24 09be b583 d13d f3b1 eb3d d3e4 583c
00000080: 184f a1bd 0bf8 26bd 6efc ca3d c1f8 563d
00000090: 479c 77bd 125a 4b3d ce61 5f3d 0f3d 4ebd
000000a0: 1f49 ccbd 1b0c 303d 41d9 2c3d 6640 2d3e
000000b0: 91ee dfbc 5e24 d33c d7ab 1d3d 7de7 9f3d
000000c0: dd35 a73d c6cd f7bd 0d6c 173e 98fc 0a3d
000000d0: 7bf5 303e 4b0f 0abe 2557 1e3e 162a 023e
000000e0: b88c 88bd dd48 25be 043c ec3c 509a d93d
000000f0: 986f b5bd 9f1d 943d 3833 dc3c 45d1 173e
00000100: 6ce1 2d3e 1c4f a23d f051 f6bc 8efd 6ebd
00000110: 7f2b fb3d 0727 c1bd 7190 84bd 9d49 d0bd
00000120: 6736 31be f24d 203e 7803 e33d 1b14 913d
00000130: 7d4d 033e e90b fe3d 0839 f53d 947f e8bd
00000140: 417d e83d 1eb7 49bc 0654 2b3e 41d2 1c3e
00000150: 6830 1e3d b2ba bfbd ecf5 263e 624c 30be
00000160: 3469 9abd 0eaa 503d 3a60 a63c 4b6a 07be
00000170: e635 d0bd 0512 0b3d 0724 0abd b6d6 0fbe
00000180: c169 ce3d ec7a 033e 25a3 8abc c15d b53d
00000190: 343c 143d 0b87 c53d 1101 843a 5c36 573d
000001a0: 423e f73d 9b1b 5ebd cf8e 003e 012e 473d
000001b0: e14b 10be 7b76 0d3e 1533 8bbd 4488 2ebe
000001c0: 99ac 34bd d4ea 2fbe 9657 47bd 60db 2ebd
000001d0: 11f3 ffbd d5a7 123e 3546 de3d defd b33d
000001e0: 5213 253e 2894 8fbd 69be 8a3d a6a8 043e
000001f0: 5d07 0f3e d971 823d 8d16 a33d 9a7d 213e
00000200: acea 143e e94d 0ebe e958 123e d96e 8cbd
00000210: 3fcd e83d f9a7 2dbe fce2 203e 0e66 143e
00000220: 7ed5 48bd 020f 223e 2e4c 103d c028 ecbd
00000230: 4c57 8d3d 98e6 e1bd 16a0 babd a339 193e
00000240: f088 b03b 1a01 c1bd 14fb 2abe c806 0fbc
00000250: 9dd2 9e3c 7a0d f9bc bdef 0b3c e100 123e
00000260: fa94 22be 0bde 263d 53c8 9abc ac29 1dbe
00000270: 3c5e 2dbe 5841 08bc c7fe 2bbe 1551 303e
00000280: 6ec2 18be 7ada acbb 9210 75bb 7d09 d1bd
00000290: 9605 273e 1670 cebc 7a44 87bd 4dbc 0f3e
000002a0: b5db 683d 3a27 51bd 87ab 2cbe fbf4 09bd
000002b0: 8d3f 30bd 0707 43bd cad1 d33d f449 57bc
000002c0: 3ec0 443d 67a6 113e 49da 2b3b 30cb 273e
000002d0: 398f 953d aeef 04be f8bd b23d b28d 93bd
000002e0: 739f 0c3e 1dd1 493d 6af9 d6bd 0644 d7bd
000002f0: d86e 30be 9bd1 2abe 617e e3bd 3c33 383d
00000300: 6682 4abd 7184 0a3d a00e 18be 13a8 fcb9
00000310: bf2d a8bd 5822 3a3d 00d6 f7bd 44a2 aa3d
00000320: 9019 94bd 2931 9f3c 91a1 98bd 70da 173e
00000330: 3f95 8a3c ab3e af3d 9bdb 8dbd fbaa 0f3e
00000340: 4334 84bd c596 e23d 25d7 2a3e b4ac b3bd
00000350: f94e 203d c912 113d 72e5 80ba 9094 9a3d
00000360: eb02 1e3e db4b a5ba cf69 2e3d aa7d dd3d
00000370: 57cd 12be f828 d23d 3dcf aa3b 0785 01be
00000380: fa92 923d f003 a3bd 4a7d 03be 3a7f 68bd
00000390: 7409 bd3c 97e9 cb3d da0b 9ebd 7e2e 153e
000003a0: 2556 febd b604 02be 58a1 8d3d b22e 273e
000003b0: cfb6 063e 50f2 003e 8bbf 2b3c 5fce 7ebd
000003c0: 1089 04be 1981 febd 1fe9 5f3d c2ef 4fbc
000003d0: 18cd ddbc 1ddf 08bd 6358 1dba a5cf d0bd
000003e0: 1ef1 1fbd 4906 123e 3ade bebd 7a74 56bc
000003f0: ba66 0dbe e6f8 8ebd 42d5 713d 93c4 993d
0.049057048 0.15482002 0.09185339 0.029450163 -0.11798256 0.11633767 0.00013262547 0.057887755
-0.08367681 -0.14429218 -0.15543278 -0.051983163 -0.1294612 -0.15175791 0.17143877 0.07008663
-0.023121802 -0.15445064 -0.1236313 -0.16422804 -0.043456923 0.12385348 -0.022498015 0.038994666
-0.012651907 0.10566509 0.16639829 -0.07136315 -0.13392751 0.10230199 0.115085505 0.01323815
-0.07876414 -0.040763896 0.099114284 0.052483324 -0.060451772 0.049646445 0.054536633 -0.0503512
-0.09974884 0.042980295 0.042199377 0.16919097 -0.027335437 0.025774177 0.038493957 0.07807825
0.081645705 -0.12099795 0.14787312 0.0339323 0.17281143 -0.13482396 0.1546293 0.12711367
-0.06667465 -0.16141076 0.028837211 0.10625136 -0.088591754 0.07232212 0.026879892 0.14825924
0.16980523 0.07925245 -0.030068368 -0.058347277 0.122641556 -0.09431272 -0.064728625 -0.101702906
-0.17305909 0.15654734 0.11084646 0.07083913 0.12822528 0.124046154 0.119737685 -0.113524586
0.11352015 -0.012311725 0.16731271 0.1531458 0.038620383 -0.09361781 0.16304749 -0.17216638
-0.07539597 0.050943427 0.020309556 -0.13224141 -0.1016653 0.03395273 -0.033725765 -0.1404675
0.10078765 0.1283986 -0.016923496 0.08855773 0.036190227 0.09644898 0.0010071119 0.052542076
0.120724216 -0.054225545 0.12554477 0.048627857 -0.14091446 0.13814728 -0.067968525 -0.17044169
-0.044109914 -0.17179424 -0.048667513 -0.04268968 -0.12497533 0.14321835 0.10853235 0.08788656
0.16120651 -0.070106804 0.06774599 0.1295496 0.13967653 0.06369371 0.079632856 0.1577057
0.14542645 -0.13896908 0.14291729 -0.0685708 0.113672726 -0.16958608 0.15711588 0.14492056
-0.049031727 0.15826038 0.0352289 -0.1153121 0.06901416 -0.110303104 -0.09112565 0.14963393
0.005387418 -0.09424038 -0.16697341 -0.008729644 0.019387538 -0.030401934 0.008541045 0.14258148
-0.15877143 0.0407391 -0.01889435 -0.15347928 -0.16930479 -0.00831636 -0.16796409 0.1721843
-0.14917919 -0.005275068 -0.003739391 -0.10206888 0.16310725 -0.025199931 -0.06604858 0.14036675
0.056850154 -0.0510628 -0.16862307 -0.033680897 -0.043029357 -0.047614124 0.103427485 -0.01314019
0.0480349 0.14223634 0.0026222637 0.16386104 0.07302708 -0.12982056 0.0872764 -0.072047606
0.137327 0.04927169 -0.10496791 -0.10511021 -0.17229784 -0.1668152 -0.11108089 0.044970736
-0.049440764 0.033817712 -0.14849329 -0.0004819041 -0.082118504 0.04544291 -0.12101364 0.08331731
-0.07231438 0.019432621 -0.07452691 0.14829421 0.01691687 0.08556875 -0.06926652 0.14030068
-0.06455281 0.11063913 0.16683634 -0.08773175 0.039137814 0.035418306 -0.0009834005 0.07547867
0.154308 -0.0012611108 0.042581376 0.10814984 -0.14336143 0.102617204 0.005212693 -0.12648402
0.0715694 -0.079597354 -0.12840763 -0.056761958 0.023075797 0.09956663 -0.07717104 0.14568517
-0.124187745 -0.1269711 0.069155395 0.16326407 0.13155673 0.12592435 0.010482679 -0.06220853
-0.1294291 -0.12426967 0.05466568 -0.01269144 -0.027075335 -0.033415902 -0.00060022454 -0.10195855
-0.039048307 0.1426021 -0.0931973 -0.013089294 -0.13808718 -0.06981067 0.05904127 0.07508197

bn1.weight f4 [400]
00000000: 4382 3d3f e604 0b3f 884b de3e 8d9d 123f
00000010: 0cc0 593e 5dcc 1e3f d65f 193f 13b8 ec3e
00000020: 10db 2e3f 7011 183f f5bb ea3e d0a9 0d3f
00000030: 766d 0f3f af6d 4a3f b3c9 cb3e a658 383f
00000040: 2804 773e 069a 1b3f e19e f23e a419 a23e
00000050: 3978 b93e 2619 383f 8825 983e 2872 4a3f
00000060: 793a 263f 9c16 ff3e 2757 2e3f ca24 b33e
00000070: 0e7f b33e 5be8 053f f52f b13e 6a21 0f3f
00000080: 4609 113f 6d6b da3e 2ca2 203f 4c95 a33e
00000090: 1d67 d73e a95f 0c3f cb67 b93e 33be 113f
000000a0: a519 d23e efbe 2d3f 910b 1f3f 7f20 e53e
000000b0: 941c 0d3f a2a7 3f3f c85f 233f 8211 053f
000000c0: 27c5 e13e 2f0c 013f 2963 973e 1def 163f
000000d0: 7dca 383f 2cbc f33e fe94 b53e 8dc6 9f3e
000000e0: 4c2d 0a3f 5985 0a3f 9af2 cd3e a816 aa3e
000000f0: 688e 103f 9f76 b13e 13b3 293f 3a30 9d3e
00000100: d325 b73e 862e 283f 0b1a d23e 98d4 b23e
00000110: 91af 1f3f 4acb 033f 4223 883e 6ff5 fd3e
00000120: 0413 003f 9d7f f93e 0789 033f e8b9 173f
00000130: a833 233f 6a7f b83e 1289 163f 3b3d 423f
00000140: 6d4c b23e 2adf 303f 4473 963e 2dcd 863e
00000150: 4740 bc3e bcc9 a63e 975a 173f 4d10 f33e
00000160: 542c 383f 1bae 373f b22d 303e 8800 9d3e
00000170: d2f2 da3e 8668 1e3f e543 b13e ff51 bd3e
00000180: a398 173f 7c0c c93e d0cf 9c3e e702 eb3e
00000190: 4afd 0a3f cdb3 e13e e32f c63e d5ec 183f
000001a0: 8582 dc3e a90f 353f 277a 583e 186f be3e
000001b0: 6a4f 303e 1812 1d3f 0849 e23e d432 003f
000001c0: 70cf ca3e 7223 003f 5816 223f e641 623f
000001d0: 119f 073f 0305 fd3e be86 dc3e d64f e13e
000001e0: 0826 0f3f 2a8c 223f ba07 c43e 6483 043f
000001f0: 04fc cc3e 4e40 033f e182 e53e 864a 3a3f
00000200: 241f 193f e60d 843e aefd 153f da99 d53e
00000210: a064 173f fa17 ff3e b29b fa3e 6abc f23e
00000220: b05d 0b3f 87c4 683f 69fc ff3e 36e1 8e3f
00000230: a4ea a13e 0022 b03e 9442 c33e e4f9 d83e
00000240: 704b 003f 4e7b ed3e cb05 9d3e 0d04 f93e
00000250: 723d 043f b446 163f 7e88 cf3e 1b1f 0e3f
00000260: 0ad8 d73e a88a 013f 18ae e73e bdb6 e43e
00000270: e82c ff3e f696 fc3e 17be e43e b5c2 013f
00000280: 6f99 283f 4713 163f f84b 083f 9af2 033f
00000290: 8454 a73e 2d3d 1d3f 9ab4 e13e c9f8 253f
000002a0: 4cd2 183f 3932 1c3f 630d f23e 2e9d 0d3f
000002b0: 0135 6ebe f17d a93e 706f cb3e 5119 c73e
000002c0: 5d2e f93e 5b4c ec3e c7db 043f 083a 083f
000002d0: fd1c 603e d8e1 df3e 68b2 5c3e edc9 0e3f
000002e0: 8cc2 d33e 3c11 dd3e 06a4 ac3e 4dec fc3e
000002f0: 32ed f73e cb68 ef3e d5be 6d3f b42e 223f
00000300: fcbb 313f 7bdb a03e edd1 723e 0b2b a93e
00000310: a393 143f e9c2 073f 7b3f ae3e 7236 023f
00000320: 965a 533f 076e 353f 586f c63e a58b eb3e
00000330: a266 0c3f 2190 263f 3dfd 463f 34f8 1a3f
00000340: e4cd a93e 8430 a53e c374 3f3f 1a2a f73e
00000350: a182 273f ea59 993e 76dd 1a3f b0e5 8d3e
00000360: acb4 0b3f 0dce f53e b608 a73e 6087 103f
00000370: e5cb bd3e f52a 013f c590 f43e 4e06 d73e
00000380: e7b3 9d3e 38a4 e73e cf91 0c3f 6c5f 013f
00000390: ea05 2a3f ab9c cc3e 1dcc 203f 37a6 763e
000003a0: 5d75 003f d47e 7c3e 3eab 093f 5181 c33e
000003b0: 0cae ab3e 6758 943e 3bed 233f d500 3e3f
000003c0: d478 393f 9287 df3e 315e 1f3f add1 113f
000003d0: 3d85 833e 76f6 023f 401f bd3e 35d2 953e
000003e0: 1fa9 243f 5dcd ea3e 2131 033f 9733 ac3e
000003f0: 647b b13e 3376 993e dfa8 523f c8df da3e
0.7402689 0.5430435 0.43417 0.57271653 0.21264666 0.62030584 0.5991186 0.46234187
0.6830301 0.5940161 0.45846525 0.5533724 0.560264 0.79073614 0.39802322 0.72010267
0.24122679 0.60781896 0.4738684 0.31660187 0.36224535 0.71913373 0.29716134 0.7908044
0.6493297 0.49821937 0.68101734 0.34989005 0.35057873 0.5230767 0.346069 0.5591036
0.56654775 0.42660084 0.62747455 0.31949842 0.42070857 0.54833466 0.36212 0.56930846
0.4103519 0.67869467 0.62127024 0.44751355 0.5512173 0.7486516 0.63818026 0.5197984
0.44095728 0.50409216 0.2956784 0.5895861 0.7218397 0.476045 0.35465235 0.3120617
0.5397537 0.5410972 0.40224153 0.3322041 0.56467295 0.34660813 0.6628887 0.30700856
0.35771045 0.6569599 0.41035494 0.3492782 0.6237727 0.5148207 0.265894 0.49601313
0.50029016 0.48730174 0.5138096 0.59268045 0.63750696 0.3603471 0.588029 0.7587468
0.34823933 0.6909052 0.29384816 0.26328412 0.3676779 0.32575786 0.59122604 0.47473374
0.7194264 0.7175004 0.17204931 0.30664468 0.42763382 0.6187824 0.34622112 0.3697662
0.5921728 0.39267337 0.30627298 0.45900652 0.5429274 0.4408249 0.3870841 0.59736377
0.43068328 0.7072702 0.21140347 0.37194133 0.17217794 0.61355734 0.44196343 0.5007756
0.39611387 0.50054085 0.63315344 0.88381803 0.5297709 0.49417886 0.4307155 0.44006222
0.55917406 0.63495123 0.38287145 0.51762986 0.40036023 0.51269996 0.44826415 0.72769964
0.5981314 0.25791854 0.5859021 0.41718942 0.59137917 0.4982298 0.4894691 0.47409374
0.5443983 0.90924877 0.4999726 1.1162479 0.3162433 0.3440094 0.38136733 0.4237815
0.5011511 0.46383137 0.30668482 0.48635903 0.5165626 0.58701634 0.40533823 0.55516213
0.42157012 0.506022 0.4525001 0.44670668 0.49838948 0.49333924 0.44676277 0.50687724
0.6585912 0.58623165 0.5324092 0.51542056 0.32681668 0.6142147 0.440831 0.6483274
0.5969589 0.61014134 0.47275838 0.5531796 -0.23262407 0.33103898 0.39733458 0.38886502
0.48668185 0.46152005 0.51897854 0.5321355 0.21886058 0.43726993 0.21552432 0.55776864
0.41359365 0.4317721 0.3371889 0.49399033 0.48423153 0.46759638 0.9286931 0.63352513
0.69427466 0.3141745 0.23712893 0.33040652 0.58037776 0.53031784 0.34032807 0.50864327
0.825601 0.70871013 0.38756824 0.46004978 0.54844105 0.65063673 0.7773016 0.6053498
0.33164895 0.32263577 0.7478754 0.48274308 0.654337 0.2995141 0.6049417 0.277143
0.5457256 0.48008767 0.32623833 0.56456566 0.37069622 0.5045617 0.477667 0.41996998
0.30801317 0.45242476 0.54909986 0.5053623 0.66415274 0.39963278 0.6281145 0.24086843
0.5017908 0.24657756 0.5377692 0.38184598 0.33531225 0.28973696 0.6403386 0.7422002
0.72449994 0.4365812 0.622531 0.56960565 0.2568759 0.5115732 0.36937904 0.29261938
0.6432056 0.45859805 0.5124684 0.3363311 0.34664452 0.2997299 0.82288927 0.42748857

bn1.bias f4 [400]
00000000: 5163 9ebe b91f bcbe cd97 fabd d354 b1be
00000010: 9a05 0bbe ae0e 39bd 0a10 6bbe 6cf6 b3be
00000020: 702a b0be 1f68 a0be 1b39 bdbe 9ba7 80be
00000030: 0014 8ebe b433 8ebe 5ea9 5ebe 4fd9 19be
00000040: fa10 febd 658b f6bd bd08 9ebe ab87 f7bd
00000050: 10dd 0bbe be99 9dbe 9e3c 30be 78bc 61be
00000060: 75d9 44be a92d d3bd 4103 1cbf 1bec 0cbe
00000070: 3d96 80be 0515 e2be 5f12 9abe 234c 9ebd
00000080: 0ee8 a9be c9c8 7cbe e227 94be bdd0 17be
00000090: 5a9e 97be 65ec 50be fd4f adbe 053d 7dbe
000000a0: a3e0 a2be 13e5 55be 6972 9fbe fbd4 94be
000000b0: e8d1 c6be 7583 39be 6141 c2be 0c18 6bbe
000000c0: 423f b7be 24a3 8bbe 1756 d0bd e1ba f9be
000000d0: 7af6 adbe 97da 75be 1a28 fdbd cf74 17be
000000e0: 2e9e d2be 7294 27bd ffde ddbd 8657 37be
000000f0: 2869 87be 7868 fbbd 627c 92be 1cd9 63be
00000100: 233b 7ebe 0688 60be a595 debe aa51 c1bd
00000110: 9722 0abf 3868 adbe 4c38 c4bc ae0d 57be
00000120: 089e c5be 7b5f e9be d0b1 a9be 4629 0fbe
00000130: f258 7fbe 89bf aabd a432 c8be 0c7e efbe
00000140: 9d07 98be 0409 b8be 3d2d 61be 9d6d 66be
00000150: 0b9b a4be 0f3e 00be 15a1 34be e6f0 fabd
00000160: 3e52 83be 72a1 99be 6f7d 1ebd bed6 8bbe
00000170: 88c5 e9bd 8be3 03bf 61b6 f5bd 16bc 8fbe
00000180: 0b39 a0be 2575 9fbe b2c3 b7bd 4fa6 62be
00000190: 1132 29be 6d05 03be 47ac 9cbe 53e5 81be
000001a0: 1d99 9cbe ebd4 49be e3f8 89bd 6159 bfbe
000001b0: f57c 74be 0eb5 1fbe 0ebd a2be e7de 8cbe
000001c0: 5900 97be 54dd 75be 4e35 b6be 2cff 86be
000001d0: d494 e2be 5701 a4be 1a4f cfbd 6b5b aebe
000001e0: 41b3 84be c5b0 1dbe 0a61 9cbe 4566 3dbe
000001f0: 60fe 90be f081 7cbe 2345 4abe 1548 93be
00000200: 269e cebe 3149 89be d939 d3bd 2250 56be
00000210: 64fc e6be d832 7ebe f2a3 82be 38af dfbe
00000220: f5e0 bcbe 6b10 b4be 0f4e b8be d1b4 fcbe
00000230: 7fcc 02be 1fd8 a4be 48af d5be 298c 48be
00000240: b41e 97be d1ec 52be 97e7 1ebe e659 f63d
00000250: 44b5 64be 5876 23bd 1d21 2fbe 2476 28bc
00000260: 7458 2ebd ae11 fcbd adb1 43bc a47b 68be
00000270: 7e44 abbe e731 4fbe 8162 b0be 7332 08bf
00000280: 9580 61be ed7a 84be c709 f0be 895e d0be
00000290: 244a f7bd 4c8b 85be c94c 61be 29d6 02bf
000002a0: 2730 c4be 1c15 66be 3631 b8be 4e09 91be
000002b0: e365 3ebd 22f1 13bd 2759 3dbe 3014 81be
000002c0: 9c3c a5be 65f3 c9be 4773 81be 4507 3abe
000002d0: d13e 81be 65b6 63be 54e9 5d3d 2bcc f7be
000002e0: 9cdd 4fbe 4bba 41be 90f4 70bd 8180 c2be
000002f0: 2b03 efbd a40a 10be cb97 f7be dbf4 81be
00000300: ca1b 7ebe d13c 02bd eb5c 0cbe 6bef 22be
00000310: 2aac d8be b174 bebe 1fb8 68be 9041 71be
00000320: f32c 35be fc82 1ebf 6f24 29be 7970 1bbe
00000330: 2795 d6be 28ea 8fbe d59d 5fbd a41e 9fbe
00000340: 6a03 f4bd 7547 9cbe fdd8 8fbe 996e c4bd
00000350: b1db e8be 0984 20be cc32 babe 6898 8d3c
00000360: 3a69 b6be a86b 84bb 8a58 bdbe 004e a4be
00000370: f0ec 47bd 11fa b2be 8bcb cbbe b2d3 9dbe
00000380: 2192 0ebe 866f babe f7b4 99be b87b cdbe
00000390: 6466 aabe 3754 a9be 653d c0be 116a 41be
000003a0: 9c82 84be b107 45be f2f5 00bf 2b90 e6be
000003b0: e867 23be 92b6 2dbe f80d ecbe 4552 0dbf
000003c0: 49db c7be 115f f0be 9904 48be f97f c6be
000003d0: 3b05 cd3d 76c6 24be 178a 50be 7f5c 39be
000003e0: d99d b8be ee28 d1be 7fbe cbbe 6098 34be
000003f0: a1cf c13d 5eda 523a be20 fbbe 5841 75be
-0.30935147 -0.36742952 -0.12235985 -0.34635028 -0.13576356 -0.045180015 -0.22955337 -0.35148942
-0.34407377 -0.31329438 -0.3695763 -0.25127873 -0.27749634 -0.2777382 -0.21744296 -0.15024303
-0.12405582 -0.12038306 -0.30866042 -0.120864235 -0.13658547 -0.30781358 -0.17210624 -0.22044551
-0.19223578 -0.10311443 -0.60942465 -0.13761942 -0.25114623 -0.44156662 -0.3009214 -0.07729366
-0.33184856 -0.24685968 -0.28936678 -0.14825721 -0.29613 -0.20402677 -0.3385009 -0.24730308
-0.3181201 -0.20888166 -0.31141976 -0.2906874 -0.3883202 -0.18116553 -0.37940505 -0.22958392
-0.3579045 -0.27272904 -0.1017267 -0.4877539 -0.3397711 -0.24009167 -0.123611644 -0.14790653
-0.41136307 -0.040913053 -0.10833549 -0.17904481 -0.26447415 -0.12275785 -0.28610522 -0.2225079
-0.24827246 -0.21926889 -0.43473545 -0.09439404 -0.5395903 -0.33868575 -0.023952626 -0.21001312
-0.3859713 -0.45580658 -0.33143473 -0.13980588 -0.24936274 -0.08337314 -0.39101136 -0.46775854
-0.29693308 -0.35944378 -0.21989913 -0.22502752 -0.32149538 -0.12523673 -0.17639573 -0.12252979
-0.25648683 -0.30005985 -0.03869384 -0.27312273 -0.11414629 -0.5151908 -0.11997677 -0.28073186
-0.3129352 -0.31144062 -0.08972873 -0.22133754 -0.16523005 -0.12795039 -0.30600187 -0.25370273
-0.30585566 -0.19710128 -0.067369245 -0.37372878 -0.23875792 -0.1559641 -0.31784862 -0.2751381
-0.29492453 -0.24010211 -0.35587543 -0.26366556 -0.44254172 -0.32032272 -0.10122509 -0.3405412
-0.2591801 -0.15399463 -0.30542785 -0.18496044 -0.28319073 -0.24658942 -0.19752936 -0.28765932
-0.40355033 -0.26813653 -0.10313768 -0.20929006 -0.45114434 -0.24824083 -0.25515705 -0.4368837
-0.3689038 -0.35168776 -0.35997054 -0.49356702 -0.12773322 -0.32196137 -0.4173529 -0.19584717
-0.29515612 -0.20598151 -0.15518032 0.120288655 -0.22334772 -0.039907783 -0.17102475 -0.010282073
-0.042564824 -0.1230806 -0.011944217 -0.22703415 -0.33450693 -0.2023388 -0.34450153 -0.5320198
-0.22021706 -0.25875035 -0.4688246 -0.40697125 -0.12074688 -0.26082838 -0.22001947 -0.5110803
-0.38317987 -0.2246899 -0.35975045 -0.2832741 -0.046483885 -0.036118634 -0.1849104 -0.25210714
-0.32272804 -0.39443508 -0.25283262 -0.18166836 -0.25243238 -0.22237547 0.054177597 -0.48397955
-0.20299381 -0.18918721 -0.058826983 -0.37988666 -0.11670526 -0.14066559 -0.48357996 -0.25382122
-0.24815288 -0.03179628 -0.1370732 -0.15911643 -0.4231885 -0.37198403 -0.22726487 -0.23560166
-0.17692928 -0.61918616 -0.16517805 -0.15179624 -0.4191067 -0.28108335 -0.05459388 -0.31078064
-0.11914714 -0.30523267 -0.28095236 -0.09591407 -0.4548011 -0.15675367 -0.3636688 0.017284587
-0.35627156 -0.004041154 -0.36981612 -0.3209076 -0.048809946 -0.3495641 -0.39803728 -0.30825573
-0.13922931 -0.3641321 -0.30020878 -0.40133452 -0.33281243 -0.33072063 -0.3754684 -0.18888117
-0.25880897 -0.19241215 -0.5037528 -0.45031866 -0.15957606 -0.16964176 -0.46104407 -0.5520366
-0.3903449 -0.4694753 -0.19533004 -0.3876951 0.10010763 -0.16091332 -0.20365177 -0.1810169
-0.36057928 -0.4085154 -0.39793774 -0.17636251 0.0946343 0.00080434035 -0.49048418 -0.23950708

bn1.running_mean f4 [400]
00000000: f94b 7a3d c8bf 053f e3fa 863e ebe0 913e
00000010: 3ed8 1b3f 7a8c d23e 50b5 903f 0a90 0e3e
00000020: aad7 39be 8ecb 99bc f055 e93c f8eb 0b3d
00000030: 5b21 3d3e 757a 60be aa4e bbbc 842d 5f3f
00000040: df80 393f b6c8 823c 83f1 d2be 4700 a73e
00000050: c41f 66bd 80bd 6f3f 6c04 d2bc d768 0a3f
00000060: d404 dabc 7927 713e 9f13 71bf c020 c23e
00000070: a4be 2abd 4d2f 9b3e f6fa e9be 26ba 673f
00000080: 07b6 0d3e c44f 22bc 0d93 063f a71f e2bd
00000090: 93fe 163f b919 263e 9c44 a7be b5b4 94bf
000000a0: d107 e6bd dbf6 e03e 92c6 273f d6b8 94be
000000b0: c193 a93c 38b7 47bd 0e81 8fbe aedb 183e
000000c0: ed2a 993d a3bf 9c3e aa9c 163f 64ee 2dbf
000000d0: 4580 4d3f f8dd 613e 054c 793d 5993 013f
000000e0: e388 b3bd 4254 66be baea ed3e e595 713f
000000f0: f5f1 e6be 4cfa 903d ff06 f3be 6c5f 0c3f
00000100: 8563 a23e 7504 053f 6a1d b8bf b91f 40be
00000110: 16e2 5f3f 337e edbe ff5b e93e ccc1 693f
00000120: 6f5a c5be f250 223f ef6d 8d3f 9745 8b3e
00000130: e81d 37be 6aed 37be 48d7 133f 7a4a 123e
00000140: 234a 0c3f f00f 57be 011c 443e a382 42bf
00000150: 182d c93e 67b0 303f 6fd0 023f ea7b 0fbf
00000160: 7c6d 54be 079f 0f3f 6a6c e1be 51a2 a0bf
00000170: caae cabb 4cbe d23e ab6c a43e 46e2 cf3d
00000180: e717 1c3f 613d 723f f10c 2b3d 3e54 2abe
00000190: bf69 a1bd 13ac 333d 0d3c 2c3e 24d1 19bd
000001a0: a1b3 353f 5b2d e7bd 22be e03e c055 44be
000001b0: 80d3 c43b 6973 2dbe d057 8bbe bfaa e1be
000001c0: dc31 39bf a1b5 e3be 9ae4 aebd 69ec 683c
000001d0: c452 573f 9c18 303f 536c e33e a7e7 453d
000001e0: 640c 6fbf fc9f 42be 3330 433f d6fb ad3e
000001f0: 3f54 a8bd bcee a43e 0899 fa3e a665 d9bd
00000200: 9d3d f93d 6703 42be db7b 85be 2e91 3f3f
00000210: 4921 cbbd 0b34 a4bd bdae 6f3f efd5 053f
00000220: ac99 59be 21a5 423f ba72 a4be 6cbc 16bf
00000230: bdf4 943e feca 6abe 216f a1be bbf5 65be
00000240: d98d 0fbd 9850 d63e 6f84 62bf 582c 8dbe
00000250: c966 c2be ccf7 173c 16ec 2abf d2f8 ae3e
00000260: eb9b b73e 4c26 9a3f 84bc a4be a597 06bf
00000270: bfb3 cabe bbfb e23c a2b0 9e3f 81cf cebd
00000280: a2b9 253e a0a9 05be 917f 133f d14f 493f
00000290: da2f 6d3e 39af 8b3e 1d75 893f 55e5 9a3e
000002a0: e827 523f b397 2dbf ab19 3bbf f79a 2bbe
000002b0: ff5e 0abe 214b 4e3e 2234 103f 3543 bf3e
000002c0: 5160 0c3f 637c c8be 82b1 45be 4adf fc3e
000002d0: 282f 5c3e b2d4 053f 02dd 9c3e 0337 19bc
000002e0: c315 0d3f 1597 d13e bad8 e8be 723e c0be
000002f0: 6af2 843f a11d 7f3e 4206 e8be ebcc 1e3e
00000300: 294f 143f 29ba 20be c499 0bbf 5769 0dbf
00000310: 10c0 d6be 51e4 2d3d 6292 993c b791 603f
00000320: 51c2 e23d 94a3 923e 0d09 1c3f 3dd0 453f
00000330: 89b6 553e b374 ec3e 0d26 013e c0c5 bd3e
00000340: 58b3 383e 5d2a cc3e b329 5f3e 8543 7e3f
00000350: 10f6 363e 5bff b3be 8d74 3a3f b373 b23e
00000360: 93b5 193e 93ad 69bd 0347 66bd 1b7b 4bbf
00000370: 277c 973f 09b9 60bf e71e eabe 48c3 5b3f
00000380: 4e30 c4be 4852 87bf 1e88 103f 9e9a 7a3e
00000390: 3469 5d3f 9825 0dbe e47b 8d3e 1793 193f
000003a0: b85d fa3d 39ba 153f 9a0a c5be 600f 5b3f
000003b0: 0e0c 483f 5d29 773f 6e72 853d bcb0 263e
000003c0: 655b e43d 4f8b a9bd 60a7 c6be c295 f23e
000003d0: 91a5 8d3f 54cd 1a3d 5d2c f43d f433 ffbe
000003e0: 7a77 963e 86ad 00be 7e5a a3be 6268 88bf
000003f0: 2dd1 cebe d120 b63e 2f54 9d3d 3881 493f
0.06110761 0.5224576 0.26363286 0.2849191 0.60876834 0.411228 1.1305332 0.13922134
-0.18148676 -0.01877382 0.028483361 0.034160584 0.18469755 -0.21921714 -0.022864658 0.87178826
0.72462267 0.015964847 -0.41199884 0.326174 -0.056182638 0.9364853 -0.025636874 0.5406622
-0.02661363 0.23550214 -0.94170564 0.3791561 -0.041685715 0.30309525 -0.4569928 0.90518415
0.13838969 -0.009906713 0.5256813 -0.110411935 0.589822 0.1622075 -0.32669532 -1.1617647
-0.112319596 0.43938336 0.6553737 -0.2904727 0.020700337 -0.048758715 -0.28028148 0.14927551
0.074788906 0.30614957 0.588328 -0.6794188 0.8027385 0.2205733 0.060863513 0.5061546
-0.087663434 -0.2249308 0.46468145 0.94369346 -0.45106474 0.0707899 -0.47466275 0.548331
0.31716552 0.51959926 -1.4383976 -0.18762101 0.87454355 -0.46385345 0.45578 0.91311336
-0.38545558 0.6340476 1.1049174 0.2720153 -0.17882502 -0.1796166 0.5775037 0.14286223
0.54800624 -0.21002173 0.19151308 -0.75980586 0.39292216 0.6901917 0.51099294 -0.5604845
-0.2074489 0.5610203 -0.44028026 -1.2549535 -0.0061853873 0.4116081 0.32114157 0.1015058
0.6097397 0.94624907 0.04176039 -0.16633698 -0.078814976 0.043865275 0.16819783 -0.037552968
0.70977217 -0.11287948 0.4389506 -0.19173336 0.006006658 -0.16938557 -0.27215433 -0.4407558
-0.72341704 -0.4447451 -0.08539696 0.014216521 0.84110665 0.6878755 0.44418582 0.048316624
-0.9337828 -0.19006342 0.7624542 0.33981198 -0.08219194 0.3221339 0.4894488 -0.10615091
0.12169955 -0.1894661 -0.26071057 0.748309 -0.09918458 -0.08017739 0.93626004 0.5227956
-0.21250027 0.76033217 -0.3211878 -0.5888126 0.2909297 -0.22928998 -0.31530097 -0.2245702
-0.035047386 0.41858363 -0.8848333 -0.27572894 -0.37969044 0.009275388 -0.6676649 0.3417421
0.35861143 1.2042937 -0.32175076 -0.5257514 -0.3959026 0.027707925 1.2397654 -0.10098172
0.16184095 -0.13052988 0.57616526 0.78637415 0.23162785 0.27282122 1.0738865 0.3025309
0.8209214 -0.678096 -0.7308604 -0.16758333 -0.135128 0.20145847 0.5632955 0.37355962
0.5483447 -0.391574 -0.19305995 0.49389106 0.21502364 0.5227767 0.30637366 -0.009351495
0.5511133 0.4093558 -0.4547785 -0.37547642 1.0386479 0.24913646 -0.45317274 0.15507858
0.5793329 -0.15696014 -0.545315 -0.5523886 -0.41943407 0.042454068 0.018746559 0.87722343
0.11072219 0.28640425 0.6095131 0.7727087 0.20870413 0.46182784 0.12612171 0.37064934
0.18037164 0.3987607 0.2179325 0.99321777 0.17867303 -0.35155758 0.7283409 0.34853896
0.15010671 -0.0570503 -0.056220066 -0.7948472 1.1834763 -0.8778234 -0.45726702 0.8584485
-0.38318104 -1.0571985 0.564577 0.24473044 0.8648865 -0.13783872 0.27633584 0.59990066
0.12224907 0.5848728 -0.3848465 0.85570335 0.78143394 0.9654749 0.06515966 0.16278356
0.111502446 -0.08278524 -0.38799572 0.4737988 1.1066152 0.037793472 0.11922524 -0.49844325
0.29388028 -0.12566194 -0.31904978 -1.0656855 -0.40393963 0.35571912 0.07682072 0.787128

bn1.running_var f4 [400]
00000000: 4789 833e 5561 ba3e 10e8 463e a073 8c3e
00000010: 78bc 2c3f 248d 0b3f bab4 9b3f 221e 763f
00000020: cd66 9a3e f71b a43e 87d3 bb3f 2afa 3a3f
00000030: 337d b03e 2d20 5d3e 1d50 f43e 7004 7d3e
00000040: dafa 593f dea7 713e a732 ed3f db14 053f
00000050: 9f21 d73f 4593 673f d30e 553f 18b6 da3e
00000060: 7097 db3e 95cd dc3d 383c a43f b2d5 463f
00000070: af12 203f b5cb 5e3e dc78 d13e b97a a83f
00000080: 9a0d 7d3e 24dd 763f 4a7c c33e 1850 f03e
00000090: 745e e13f d0a2 ce3e 8882 193f 7cc5 823e
000000a0: b671 cd3e 2147 953e a14d 183f 9a97 913f
000000b0: 8f12 403e bc2c a03f f27a f23e cdb8 533f
000000c0: 04e4 863f 3b80 713e d547 0040 8f72 123f
000000d0: 6662 bb3e 1ba4 833f 1b6a 0f3f 110a 303f
000000e0: c90f 533f 4419 a23e 5e5f 253f 0848 193f
000000f0: 2a91 2c3f 7d25 bb3e 0588 763f 8587 7e3f
00000100: b683 f03f 7e1d 083f 44a6 843f c635 763e
00000110: a8a9 463f 6989 9e3f 5d07 c93e 7ac0 233e
00000120: 3e48 8e3f 4992 c73e 8625 2e3f 771f 0e3f
00000130: a594 5c3e 99fb ad3f fd57 813f e30c cd3e
00000140: 9884 ac3e 7cc4 453f f0da 733e d73d 2e3f
00000150: b1e1 843f b071 f13e 6cd1 4c3f 0d43 8f3e
00000160: d3c3 613e 9fdc 023f 4345 b03f 7a47 393f
00000170: a47c 023f 7654 e03e c7cf 633f ca1c b73e
00000180: 080e e83e e4dc db3e 841f 943e c64c 293e
00000190: fe07 e43e 7eba b83e acc4 423f f45a 443f
000001a0: 7c68 3f3f 03d2 9a3e 50f1 ee3e c29a da3e
000001b0: 0dba 9a3f 3cc2 8f3e 062b 0b3f 82aa 3840
000001c0: 4bb8 5f3f 5ad1 d83e 95e4 1c3e 01c9 403f
000001d0: 3590 c83f df4a 1a3f 76ee b13f e2c1 a53f
000001e0: 8e2b 403f c1eb 563e 7830 7e3f 195d 163f
000001f0: b458 9b3f c71e 203f 86ee af3e d1dc 1d3f
00000200: 0cc0 b23e 4b58 773f fce4 393f 20b2 e43e
00000210: 9501 c93e aa40 3a3f bf11 393e ff6a 0340
00000220: f408 ca3e 8854 113f f7a9 433f 47f5 463f
00000230: 41a5 823f f7e7 b43e 04ba 083f b294 663e
00000240: c159 853f c742 bc3e 6281 bf3f aa9a a43e
00000250: 1309 913e aabc 8e3e 8b2a bb3e b156 b13d
00000260: 9fd5 8d3e e4c5 9b3e 68f9 2d3e 3cd4 0e3f
00000270: 8df9 a63e 707c 1f3f 08e1 2f3f 23c5 993f
00000280: c07c c73e 594e bd3e df7c ba3e a5c4 693f
00000290: 5b3a 763e 3321 123f 7580 153f 4e21 a43e
000002a0: f112 173f ee1d 883e d755 5f3e ae42 c43e
000002b0: 794e 113f 6ec8 7a3f 1581 0c3f 7786 493f
000002c0: 7f9d e83e 92ab df3e 89a3 f33e 256e df3e
000002d0: f6ed 683f 7674 0a3f 2326 113f 72d7 d63e
000002e0: 7c90 603f b161 013f f88d a83e b56a 333f
000002f0: 10ee 223f 5aa7 c03e d0c7 af3f 159e 3c3e
00000300: 1e09 373e ed13 1d3f e676 d93f 1fbe 023f
00000310: 4676 c53e 9d83 fe3e 44d6 e03e 10cf 963f
00000320: 7091 863e 4041 b13e 62c0 8d3e fd34 653f
00000330: c1fb bd3f 595e dc3e e751 363f 5761 263f
00000340: ea1e 453e 0f93 923f c368 013f 4d79 933f
00000350: 9ba9 a43f 0eeb 283f aa53 0a3f ed14 0a40
00000360: 6bc9 c83e c408 a63e 86d8 ba3e ef75 613f
00000370: a0ae ae3f 5fc1 983f 4073 4d3f b57a 9f3e
00000380: 80b5 ac3f e015 d63e 2fe0 273f b367 673f
00000390: 4054 cb3e 9433 903e fc16 8a3e ecac 803f
000003a0: ae50 973e 4035 0040 5508 cb3e 466d 113f
000003b0: c6fa f23e 8562 303f b7f9 6e3f 701c 023f
000003c0: 5fa1 973e f1e6 663f 137b 573e ff5c ae3e
000003d0: 5790 0d3f 8297 ca3e 07b5 c93e 0029 243f
000003e0: 62ad 8f3f e984 1d3f 606b 1d3f f553 393f
000003f0: d411 5a3e 6492 db3e 972f dc3e 4438 943f
0.25690672 0.36402383 0.19424462 0.27431965 0.6747508 0.5451224 1.2164528 0.9613973
0.30156556 0.32052585 1.4673928 0.7303797 0.3447052 0.21594305 0.47717372 0.24708724
0.85148394 0.23599193 1.8531083 0.5198495 1.6807135 0.9045909 0.83225745 0.42717052
0.42888975 0.10781399 1.2830877 0.77669823 0.6252851 0.21757396 0.4091252 1.3162452
0.2471222 0.96431184 0.38180763 0.46936107 1.760695 0.4035859 0.599648 0.25541294
0.40125817 0.2915583 0.5949345 1.137439 0.1875708 1.2513652 0.47359425 0.8270386
1.0538335 0.23584072 2.0043843 0.5720605 0.3659851 1.0284456 0.5602128 0.6876536
0.8244596 0.316599 0.64598644 0.59875536 0.67409 0.3655204 0.963013 0.99425536
1.8790195 0.5317 1.036324 0.2404395 0.77602625 1.2385684 0.3926343 0.15991393
1.1115797 0.38978794 0.68026006 0.5551676 0.21541078 1.3592407 1.0104977 0.40048894
0.3369491 0.77252936 0.23813987 0.6806311 1.0381376 0.4715705 0.8000705 0.27980843
0.22047357 0.5111789 1.3771137 0.7237469 0.50971437 0.4381444 0.8898892 0.35764152
0.45323205 0.42941964 0.28930295 0.16533193 0.44537348 0.36079782 0.7608135 0.76701283
0.74768806 0.3023835 0.46668482 0.42696196 1.2088028 0.28077877 0.54362524 2.885407
0.87390584 0.42347223 0.15321572 0.7530671 1.5669008 0.60270494 1.3900898 1.2949793
0.7506646 0.2098837 0.9929271 0.58735806 1.2136445 0.6254696 0.34361666 0.61665064
0.34912145 0.966191 0.7261503 0.4466715 0.3925902 0.7275492 0.18073176 2.0534055
0.39459956 0.5676961 0.7643122 0.77718014 1.0206681 0.35333225 0.5340884 0.2251766
1.0418016 0.36769697 1.496136 0.3214925 0.28327236 0.27878314 0.36555895 0.08659113
0.27702042 0.30424416 0.16989672 0.55792594 0.32612267 0.6229925 0.68702745 1.2013286
0.38962364 0.36973837 0.36423394 0.9131568 0.24045698 0.5708191 0.58399135 0.3205666
0.5901328 0.26585335 0.21810089 0.38332123 0.56760365 0.9796208 0.54884464 0.787208
0.4543266 0.43685585 0.47585705 0.4363872 0.909881 0.54083955 0.56698817 0.41961247
0.87720466 0.5053969 0.32920814 0.70084697 0.63644505 0.3762768 1.3732853 0.18419679
0.17874572 0.6135853 1.698941 0.5107135 0.38566798 0.49709788 0.43913472 1.178194
0.26282835 0.34620094 0.2768584 0.8953398 1.4842454 0.43040732 0.71218723 0.6499228
0.19250074 1.1451129 0.5055048 1.1521393 1.286426 0.65983665 0.5403391 2.1575272
0.3921617 0.32428563 0.3649332 0.8807058 1.3647041 1.1934012 0.8025398 0.31148306
1.349289 0.41813564 0.6557645 0.9039261 0.39712715 0.2816435 0.2697066 1.0052772
0.2955374 2.0032501 0.39654794 0.56807363 0.4745695 0.6890033 0.93349785 0.5082464
0.29615304 0.9019614 0.21043043 0.34055325 0.5529837 0.39568716 0.39395925 0.6412506
1.1224787 0.6153093 0.61491966 0.72393733 0.21295863 0.42885125 0.43005058 1.1579671

fc2.weight f4 [300, 400]
00000000: b5be 733e b85c 1d3e 47e2 13be be55 643e
00000010: d6fa adbd 269e 343e 21b2 4d3c a797 b9bc
00000020: 5b34 cc3c 3728 fc3d d864 1fbe b949 febd
00000030: 17a6 c3bd b9fe 263d ff9f 243e 3876 0bbd
00000040: c42c 81bc 52b6 4ebb 77f9 f4bd 83e2 64bd
00000050: 6c56 8f3d 7e67 58bc be5a bd3d 8bc7 2c3d
00000060: c852 263d ff9c 3cbc e35f b7be 4202 283c
00000070: 3be5 8e3d d885 033c afdc f83b 4b37 5c3e
00000080: 9ae3 1b3e edb7 2fbd 543d a4bd 513a 49bc
00000090: 05cc b1bd b623 2ebd 2071 e4bb 4421 0c3d
000000a0: df82 eb3d 3e2c 78bd 32cf 5bbd 03bb ca3d
000000b0: 9ba4 213d 69b3 cbbd fe67 3d3c 3548 973d
000000c0: c7ed efbc 9464 37be 5311 38be 908e 01bd
000000d0: 7fe9 673d 255d 8ebd cff3 b03d d31f 6b3d
000000e0: 0b31 41bd e2d2 7bbe 6d47 053e 1726 123d
000000f0: 18f6 41bd 6baa b0bd d953 2c3e 954e 413d
00000100: 2a16 983d 27ef 6c3d 39bf 8fbc e9d8 ce3c
00000110: 0940 703e f8c4 97bd 083e 033c f5f3 16bd
00000120: 32d7 513d 6734 d33c d43b a9be 0fc3 283e
00000130: a3d3 6cbd 4f09 b73d a437 e23d 5e9b 56be
00000140: 60b9 073e b63a 2dbe 89c2 3b3e 3c1f c2bd
00000150: 5d45 c5bc 7491 a03e 85e4 813c 6fbb debc
00000160: 5a59 53be c178 34bd 9349 323d aa0e 983d
00000170: 0461 d33c 8b0e 08bd 61cd c83c 29b8 dc3d
00000180: b90b 193e d087 1bbe 0236 d3bd a2f8 e83c
00000190: 2e84 993d 46bc c83c a747 cd3e b452 2cbd
000001a0: 7ec3 1b3d 465e 683c bb95 b9be d48a dd3d
000001b0: e40f 53be 09b1 fa3d 703a 11be f05a 243e
000001c0: 4b49 89be 3041 d6bd d0d6 ccbd eb0a 4f3d
000001d0: 675f f03d 7453 143e 7d8c 983d 290d c0bc
000001e0: cde7 97bd 3e95 1bbe 6321 593d 3d84 a9bd
000001f0: 47f7 973d 845d c33d 8aaf 703d e02f e33d
00000200: a303 7fbe 70b7 b1bd 69bf 603d 2eee 893e
00000210: bfe9 c3bd f022 3e3d c4a3 9ebe 571f a13d
00000220: 45d1 153e 8887 b83d 3dcc 213e fe60 04be
00000230: 2a74 09be 7787 0f3d 147b b3bd 3ee4 813d
00000240: c789 3e3c a177 96bd 2d07 c33c 4b0a 643c
00000250: 90f4 6abd 14e3 afb9 0c35 363e d3dd 11bc
00000260: ba64 83bd 1e10 6dbc a90e 063d 185f 033d
00000270: abe2 ddbd c3ee 3b3e 0872 963d 41f0 49ba
00000280: 0f6c 8dbe 436e 213d e313 63bc 9ea6 253d
00000290: 539d f03d b9b8 28be 46bf 22be b3a3 a1bd
000002a0: 0b22 f3bd 9bd3 09bc 2cb2 af3d ab4e efbd
000002b0: 1a20 013c 7e43 543c 8776 b3bd 9d8a c73c
000002c0: ef0a c0bc 4652 be3c d55d aebd 3935 de3d
000002d0: 9566 a9be 1cb3 f43b 69be cdbc f127 bf3d
000002e0: dc66 3e3e 00f7 92bd 7eb1 b9bd 8ee7 223e
000002f0: db8a 3a3d 2c70 98bd 235e 9ebb 8d11 99bc
00000300: 1f8c abbd 62e5 05be e119 3dbb 845e 053e
00000310: 5982 3f3d 84fc fcbb ec9d f73d a20b cbbd
00000320: cd17 94bd 0dfb 28be b634 90bd ddab 613e
00000330: 0108 3ebd 904e 7ebe 58d7 b6bc ae92 293e
00000340: b113 08be 71cf 453e bd7c 07bd fb3c 5f3d
00000350: db94 94be 5471 5b3c d094 1abe 70b0 40bd
00000360: 210d 6dbe 3045 abbd 97ee ba3c 9a8e 75bd
00000370: 6f97 b8bc f170 96be c58b 1c3e bb22 23bd
00000380: 715a 8f3d 5abf 12bd 453a 2d3e c298 08bd
00000390: f0a2 06be 0a84 1cbc 6a35 123e 2244 2f3e
000003a0: b9a6 3ebe 9e6f 4a3e eab8 9dbe 7ee7 1f3c
000003b0: a523 373d 04b6 27bd cbd9 003e c927 91be
000003c0: 16fb c4bc db2d 783e 7c03 5fbd 09e6 2d3e
000003d0: d6a1 963e 8cdb 653d 7c95 f5bc 3aa9 513e
000003e0: 6ae1 f03b efd1 053e fb63 b8be 70e9 b6bd
000003f0: df35 bd3c 2d5f 86be a5f2 883d 679e 0e3c
0.23803218 0.153674 -0.14441787 0.22298333 -0.08495109 0.17638454 0.012554676 -0.022655321
0.024927309 0.12312358 -0.15565813 -0.12416405 -0.095531635 0.040770266 0.16076659 -0.03404829
-0.015768416 -0.0031541777 -0.11961644 -0.05588008 0.069989055 -0.013208268 0.09245823 0.042182487
0.04060629 -0.01151204 -0.35815343 0.010254445 0.06977316 0.008027516 0.007594667 0.21505468
0.15223542 -0.042900015 -0.0801951 -0.01228197 -0.08681492 -0.042514525 -0.0069714934 0.034211412
0.11499571 -0.060589068 -0.053664394 0.09898951 0.03946362 -0.09946329 0.011560438 0.07386819
-0.029288186 -0.17909461 -0.17975359 -0.0316301 0.056619164 -0.0695136 0.08640253 0.057403397
-0.04716591 -0.24592164 0.13015528 0.035680857 -0.047353834 -0.08626255 0.1682886 0.047194082
0.074261025 0.05784526 -0.017547237 0.025249915 0.23461927 -0.07410616 0.008010395 -0.03685375
0.051230617 0.025781823 -0.33053458 0.16480659 -0.05781902 0.08937322 0.11045769 -0.20957705
0.13254309 -0.16916928 0.18335928 -0.09478614 -0.024080927 0.31360972 0.015856037 -0.027188985
-0.20639554 -0.044060472 0.043527197 0.07424672 0.025803097 -0.033216994 0.024511995 0.10777313
0.14945878 -0.15188527 -0.103130355 0.02843887 0.074959144 0.024503838 0.4009373 -0.04207106
0.038028233 0.014182633 -0.36247048 0.10817495 -0.2061153 0.12240798 -0.14182448 0.16050315
-0.2681373 -0.10461652 -0.1000191 0.05054752 0.117369466 0.1448496 0.07448671 -0.023443775
-0.07417259 -0.1519365 0.053010356 -0.082771756 0.07420211 0.09539321 0.058761157 0.11093116
-0.24903731 -0.08677566 0.054870043 0.2693953 -0.09566068 0.046420038 -0.30984318 0.07867306
0.14630611 0.090102255 0.15800567 -0.12927625 -0.1342322 0.0350413 -0.0876371 0.06342362
0.011629528 -0.07347036 0.023807133 0.01391847 -0.05736214 -0.00033547787 0.17793673 -0.008902985
-0.064156964 -0.014469175 0.032728825 0.03207311 -0.10834249 0.18352799 0.073459685 -0.0007703342
-0.27621505 0.039411794 -0.013859722 0.0404421 0.11748757 -0.16476716 -0.15893278 -0.07892551
-0.118717276 -0.008412267 0.085789055 -0.116849266 0.007881189 0.0129555445 -0.08762842 0.024358088
-0.023442714 0.02323259 -0.08513991 0.10849995 -0.33086076 0.0074676406 -0.025115209 0.0933379
0.18593925 -0.07176018 -0.09067057 0.15908644 0.04554258 -0.0744327 -0.0048329993 -0.018685127
-0.08376335 -0.13075784 -0.0028854536 0.13024336 0.04675517 -0.007720532 0.12090668 -0.09914328
-0.07231102 -0.16502018 -0.07041304 0.22038217 -0.046394352 -0.24834657 -0.02231948 0.1655986
-0.13288762 0.19317414 -0.033077944 0.054501515 -0.29019818 0.013393719 -0.1509583 -0.047043264
-0.2314954 -0.08362806 0.022818847 -0.05995045 -0.022533147 -0.29383042 0.15287693 -0.039828043
0.06999672 -0.03582702 0.1691676 -0.033348806 -0.13148093 -0.009552965 0.14278188 0.17115834
-0.18618287 0.19769141 -0.3080514 0.009759782 0.044711728 -0.040945068 0.12583081 -0.28350666
-0.024045508 0.24236242 -0.054446682 0.16982283 0.29420346 0.05611758 -0.029978506 0.20474711
0.00735109 0.13068365 -0.3601378 -0.089312434 0.023096977 -0.26244488 0.06686906 0.008704758

fc2.bias f4 [300]
00000000: 3f12 07bb 2fb0 18bd bf27 21bd c6a0 343c
00000010: 4554 313d 39d1 bd3c 89d9 01bd 0308 babc
00000020: c163 27bd 0d91 26bd af05 973c 3374 d83b
00000030: a906 bf3c 83bd 233d a169 eebb b0e1 923c
00000040: 01c0 88bc 4376 2c3d 00be 353c b6d3 1ebc
00000050: 67b8 6dbc 8d9e 0a3d b021 c53c 8520 1dbd
00000060: 873c 9d3c ab50 edbb 9d1b 4c3d 4f8c e73b
00000070: 575e 96bc 2c06 f3bc e818 33bd 86b1 3dbd
00000080: 9c46 6bbc 1cd8 423d 498d 2bbc b8cf 36bd
00000090: a0cd e73b 5170 3dbc 80f8 b93b 1b8c 8aba
000000a0: 07be 48bd d459 34bd b76c ccbc 11fd 57bc
000000b0: d486 6a3c cc69 48bc 4114 e3bc 983c e3bc
000000c0: 9e0f a23a 1e85 36bd 9fa7 1ebc 5000 82bc
000000d0: 9d8a 6bbc 1813 9bba 5e10 6ebc 0309 e2bc
000000e0: 9de6 30bd 5080 123d a427 b9ba b696 1ebd
000000f0: fda6 3fbd e268 793c aef9 e7bc dff1 34bd
00000100: 9eef fd3c c4de 263d d925 02bd e5d2 48bd
00000110: 6b99 2c3d d3c8 2d3d b48d 0ebd 918c 09bd
00000120: 5266 273d 6bec bd3c 453a 173c 69ad 81ba
00000130: 61fd 323d 8daf 6f3a adb1 3bbc 1bb4 b4bb
00000140: ebfa 2d38 5e47 163c 1b0a 233d 594b e83b
00000150: 4d48 bdbb 9b6f 133d 9d8d 79bc d7e8 12bd
00000160: f025 38bd db32 18bc 7d3c aabc 7587 1ebd
00000170: d963 e23c 0a71 0ebc df04 7d3c 7fda 293d
00000180: 60bf f43c 154d 5cbc e1ab 0cbd 26ba 9bbc
00000190: fcb2 d23c 2e9d 8bbb cacf 843c 5b31 dbbc
000001a0: ec9b 1c3d 8175 2d3d 894d f2bc fb3e ed3c
000001b0: 876f abbc bfbb c0bc fa66 eabc 79ed 183d
000001c0: a6e9 1cbd b9f4 b83c b0ae a83c 8a33 9138
000001d0: 4540 333d 531f 483d b229 38bd 0a37 413d
000001e0: 4bc5 d13c 1cd5 acbc d0e9 dfbc 0d28 a73c
000001f0: 7f51 d7bc 5a59 2fbc 83b1 39bd fd0c 14bc
00000200: 5637 073d 1ecc cabb 448d d5ba 72f4 003b
00000210: 6bb2 cebc 9cfc ae3b 177d f13c 6755 3a3d
00000220: e235 d1ba d6d1 0b3d d504 e43b 4361 3e3c
00000230: 874f 0d3d f4f8 ac3b 2ad8 7dbc 4000 0d3c
00000240: d03a 43bd 37ad 103d 26d6 81ba 6bdb cfbc
00000250: 5801 08ba 4980 13bc 0862 433d af4e 393b
00000260: 3d0f a33b 444e ba3c 8458 2c3d cd28 01bd
00000270: c9df 47bc 63b7 3ab9 d28e 9dbc b496 393d
00000280: f926 3abd 7e94 9f3c 5341 a93c 6b70 e139
00000290: cd10 633c 40f7 4ebc 19eb 3cbd e05d 88bc
000002a0: e402 abbc 1903 52bc 2803 503b 929b 2cbd
000002b0: 3f61 00bd 04fb 30bc 041b da3c 239a 3d3d
000002c0: 0af2 4bbd 13a2 5bbc b804 48bc 36e4 3cbd
000002d0: 4ae8 b0bb 6eef d33c d14e f0bc cf30 853b
000002e0: 8567 21bc 60ca a53c 908a 54bb fadb c83c
000002f0: 1fd7 fbbc c80c b13c e557 37bd 931c 02bc
00000300: c40b 403d 5fb9 c0bc 3180 a4bb 892c 843c
00000310: ad4c 273d d08f 35bd f06a 3c39 0f05 eb3c
00000320: a9e6 a43c 800d bb3c d38b 1bbc a66f 193d
00000330: ced8 b63b 1311 a23c 3fa6 37bc 4928 223b
00000340: 71bd b7bb 58f2 4a3d 23ea 8f3c ebf8 1e3d
00000350: 3938 31bc c76a 7abc aa3e 3f3d ce23 6a3c
00000360: 0bf4 80bc e082 15bc b4b2 0a3c 4520 2fbd
00000370: 8a52 393d 3ccb 5e3c 9fc7 a7bc 5078 ec3c
00000380: a8bb 2a3d ca40 6b3b 3a52 403d f001 a93c
00000390: baa9 ce3b fb48 55bc df5e 0fbd 5fb9 05bd
000003a0: d959 88bc d1ae 4b3d a4bb 283a 18bb 89bb
000003b0: 1872 31bd 0732 ecbc f1b8 98bc 1d93 0e3d
000003c0: 3a92 20bd 9009 4e3c 48ec cb3c 0421 1b3d
000003d0: 7a12 b2bc a070 c83c 9f40 f9bc 1c8b 743c
000003e0: 8594 15bd 2e3b e6bc 828b eb3c 4b68 62bc
000003f0: b618 c03c 5119 12bd 191c 3bbd 77ce 3fbc
-0.002061024 -0.037277397 -0.039344545 0.0110246595 0.043293256 0.023171054 -0.0317016 -0.022708898
-0.040866617 -0.040665675 0.018435327 0.006605649 0.023318605 0.039975654 -0.0072757755 0.017929882
-0.016693117 0.04210497 0.011092663 -0.0096940305 -0.014509297 0.033842612 0.024063915 -0.03836109
0.0191939 -0.0072422824 0.04983102 0.0070662866 -0.018355532 -0.029666029 -0.043724924 -0.046311878
-0.014360096 0.04756938 -0.010470697 -0.04463169 0.007074073 -0.011562423 0.0056753755 -0.0010570319
-0.04900935 -0.04403098 -0.024954183 -0.013182894 0.014314372 -0.012232255 -0.027719619 -0.027738854
0.0012364273 -0.044560544 -0.009683519 -0.01586929 -0.01437631 -0.0011831252 -0.014530269 -0.027592188
-0.04318868 0.0357669 -0.0014126194 -0.038717948 -0.04679011 0.01522276 -0.028317299 -0.04417598
0.030998047 0.04073979 -0.031774376 -0.04902925 0.0421385 0.04242785 -0.034803107 -0.03358132
0.040869065 0.023184022 0.009230201 -0.0009893599 0.043698672 0.00091432856 -0.011455935 -0.0055146343
4.14801e-05 0.009172289 0.03980456 0.0070890603 -0.005776441 0.035995107 -0.015231517 -0.035866585
-0.044958055 -0.009289469 -0.020780796 -0.0387034 0.027635502 -0.008693943 0.015443056 0.04146814
0.029876411 -0.013446112 -0.034343604 -0.01900966 0.025720112 -0.0042606806 0.016212363 -0.026756933
0.038234636 0.04234839 -0.029577987 0.028960695 -0.020927204 -0.023527024 -0.028613556 0.037335847
-0.038308762 0.02257763 0.02059111 6.923739e-05 0.043762464 0.048857998 -0.04496164 0.04717163
0.025606772 -0.021097712 -0.02733317 0.02040484 -0.026283978 -0.010702455 -0.045335304 -0.0090363
0.033011757 -0.0061888834 -0.0016292711 0.001967695 -0.02523156 0.005340172 0.029478593 0.045491602
-0.0015961493 0.034135662 0.006958584 0.011619869 0.03449967 0.005278701 -0.015493432 0.008606017
-0.04766351 0.03532144 -0.000990574 -0.025373181 -0.00051881885 -0.0090027535 0.04770091 0.002827566
0.004976182 0.022742398 0.042076603 -0.03153305 -0.012199351 -0.00017806659 -0.019233141 0.045309737
-0.045447323 0.019479986 0.020661032 0.00042999102 0.013858986 -0.012632191 -0.046122644 -0.016646326
-0.020875402 -0.012818121 0.0031740163 -0.04214055 -0.03134274 -0.010802034 0.02662421 0.046289574
-0.049791373 -0.013405341 -0.012208156 -0.046116076 -0.0053987848 0.025871005 -0.029334458 0.0040646563
-0.009851341 0.020238101 -0.0032431222 0.024518955 -0.030742226 0.02161254 -0.044761557 -0.007941383
0.04688622 -0.023525892 -0.0050201644 0.016134517 0.040844608 -0.044326603 0.00017968914 0.028688936
0.020129519 0.022833586 -0.009493786 0.037459992 0.0055800444 0.019783532 -0.01120907 0.002474325
-0.0056073 0.049547523 0.0175677 0.038811605 -0.010816627 -0.015284247 0.04669062 0.014290763
-0.015741369 -0.009125441 0.008465458 -0.042755384 0.04524473 0.01359826 -0.020480929 0.028865963
0.04168287 0.0035896772 0.046953417 0.020630807 0.006306854 -0.013017888 -0.035002586 -0.032647487
-0.016644405 0.049727265 0.0006436652 -0.0042032115 -0.0433217 -0.028832449 -0.018642874 0.034808267
-0.039201953 0.012575522 0.024892941 0.037873283 -0.021737326 0.024467766 -0.030426322 0.014925744
-0.036518592 -0.028104391 0.028753046 -0.013818811 0.023449283 -0.035668675 -0.045681093 -0.01170694
