critic_checkpoint.pth (torch_old, 549777 bytes, 9 tensors)

fcs1.weight f4 [400, 33]
00000000: 5f6f 193f 8b4a 43bf fda7 d8bf 5f12 7d40
00000010: 3ebd 433f 8ac6 b5bf 4082 88be 6dc1 a5be
00000020: e8bc 08be 4a09 e3be 6674 ab3e 23a4 81be
00000030: dc2d 87bd e230 cf3d 574e d43e 56ce 0940
00000040: 4d67 99be 6acb 75bd 4bd5 823e f8ac b83f
00000050: d142 e3bd 321d 8b3e f7ed 20bf 06db 83be
00000060: 30f9 dd3d 9bb6 a83e dd6d a1be 8a0a f63c
00000070: d2f6 b8bf 3d42 17bd 5646 05bb ca47 c93c
00000080: 8f35 52c0 1e8e 5cbe 4db7 4b3f 1b17 c13d
00000090: 2e92 89c0 19eb 24bf 6c13 eb3f 4f2a c0bf
000000a0: a027 d73e d76e 05bf d138 b4bf 5bc5 5c3e
000000b0: 4286 5f3f 6e74 3a3e 655e ad3f 733f 9dbf
000000c0: 5672 ea3e d6a6 053f 2439 4a3e 19ac 26c0
000000d0: 4c43 0e3e 4a34 2f3e 7ca9 643d aae4 653e
000000e0: 431e 96bf 20d5 f53e dec2 823f e6ad 5f3f
000000f0: 3bc1 e8bc e982 c7bd 248d 593c 5dc6 d33c
00000100: 7070 96bb a521 6540 0bd0 eabe afa4 cd3f
00000110: 6ee9 03bf 7f81 3c40 0bf7 ddbe c4e3 5340
00000120: ed51 72bd 8d97 99bf 5346 50bd fe67 453f
00000130: 3582 4c3f f901 9e3f ec01 543f 25e2 533e
00000140: 461b aabf 1eb8 a03e 3ee2 0340 6e8a c6bf
00000150: e96c cf3f 4cdd 403e c5f8 883e b032 f73f
00000160: e84a b53f 8183 fd3e 1aa9 a8bd b933 0c3f
00000170: 84af 843f 6ed8 1a3d fdac 18bf 4c36 09bd
00000180: ec67 8ebc c001 d4bb bfe3 0140 9672 5bbe
00000190: 6eee 0f40 4dbf ebbf 109d dc3f 63f6 12be
000001a0: c43e ffbf 8b34 233f 3d8b b53e 8dfd b5be
000001b0: cbaa 0f3f b66c ad3e bd08 2d3f 3d7e 2c3e
000001c0: dc9a da3e 48b1 d7bf a1ea c13f f01d 99bf
000001d0: b344 5340 1355 05bf 1173 7c3f 1ea2 debd
000001e0: 49b8 d4be 5b1b c0be 8798 7a3d afda 3bbf
000001f0: ac8c 423f 348d 12bf 433a 8a3c 3081 12bf
00000200: 5d5f dcbc 4db3 f03c 2a92 a7bc d4d7 27c0
00000210: 998a 03bf 532d a9be 659a 16be 3734 0fbf
00000220: 4175 17c0 9521 a23f 92e1 d63f 4d2a 79bb
00000230: 2779 b8bf 877f ddbe 5e49 1e3f d168 b53d
00000240: 550d ccbe 7a0c c93f a77e 563f fa9c 223f
00000250: 2a91 1ebf f3f7 6f40 c16a 9540 b7bd a13f
00000260: 1e39 a2be 7a21 023e dbbb 98bf 89e3 e4bf
00000270: 97ce 053e 7f73 b73c 8240 3d3f fdce 183d
00000280: 28b7 6c3e 8840 79bc 5c14 853c 1777 e3bc
00000290: cac1 203f d50e 4bbf aaaf 7a3e c7fc 43bf
000002a0: 0c41 68c0 4ed0 32c0 7c2d 633f c6ec c8bd
000002b0: 2931 aa3f fcee ad3e 16c8 903e e5a6 9a3f
000002c0: a1ac 2f3e 61ad c0bf e64b cd3e ede7 2ebf
000002d0: 3a6c 873f 844e 993f c143 13c0 c18b 2abd
000002e0: 39c9 a5be 7d1f 2b3f 82d1 2f3f d1e4 6f3f
000002f0: e3ed 7fbe 5094 233f 3d3e 50bf 7cd6 58bf
00000300: a3d7 a33b 517b acbf 00f1 c1b9 47b1 0abc
00000310: 2149 2a3d 4a29 70be 590b a13e f34a 99bf
00000320: 33cb 763d eadb 1bc0 5761 d33f d3c1 b740
00000330: 27c7 2abf 40da b93e dae9 a6bf be40 5f3e
00000340: 5e48 99be 5459 45bf c119 3b3e 549b 90bf
00000350: a612 7b3e 8d72 1bbf 953d 8ebd 82e7 de3e
00000360: a4a3 21bf 55f4 edbe bf3c 993d c5e5 89bb
00000370: 283a 1c3f c5c7 e8be bcb1 123e 11b4 283e
00000380: 7574 7f3f 2961 a13b e614 933f 44f2 713c
00000390: 5412 33bd 82cf da3c 3485 8540 8b92 a7be
000003a0: 05ce 0abf 5da9 1ebf 77db 9dc0 d2ed 7ec0
000003b0: 25fe f5bf 3e74 d63f d92a 1c3d e3ca b63f
000003c0: 6313 1cbf d093 c33e 2aa3 e3be 5fe4 fabe
000003d0: 00e1 633c 6d69 4ebf e446 e0bf a1dc b8bf
000003e0: 31fa 603e 17c3 33c0 cc28 673f 9227 e63d
000003f0: f5a7 043c 4452 193f 922e fc3e 88dc 0f3e
0.59935564 -0.7628562 -1.6926266 3.9542463 0.76460636 -1.4201214 -0.26661873 -0.32374135
-0.13353312 -0.44343024 0.33487242 -0.2532054 -0.06600544 0.101167455 0.4146602 2.1532187
-0.29961625 -0.060008444 0.25553355 1.4427786 -0.110967286 0.27170712 -0.62863106 -0.2575304
0.10838544 0.32951817 -0.31529132 0.030034322 -1.4450324 -0.036928404 -0.0020336113 0.024570365
-3.284519 -0.21538588 0.7957657 0.09428235 -4.299094 -0.6442123 1.8365302 -1.5012912
0.4202242 -0.52122253 -1.4079839 0.2155966 0.87314236 0.18208477 1.3544432 -1.2284988
0.45790356 0.52207696 0.1974836 -2.604254 0.13892859 0.1710979 0.055825695 0.2245051
-1.1727985 0.48014164 1.0215719 0.8737472 -0.028412452 -0.09741766 0.013278279 0.025851423
-0.0045910403 3.5801785 -0.4586185 1.6065882 -0.5152806 2.9454038 -0.4335254 3.3107767
-0.05916016 -1.1999375 -0.050848316 0.77111804 0.7988618 1.2344352 0.8281543 0.20691736
-1.3289573 0.3139047 2.0606837 -1.5510995 1.6205112 0.18834418 0.26752296 1.9312344
1.4163485 0.49514392 -0.082353786 0.5476642 1.0366063 0.03780406 -0.5963896 -0.033499047
-0.017383538 -0.006469935 2.0295255 -0.2143043 2.2489276 -1.8417755 1.7235432 -0.14351802
-1.994103 0.6375205 0.35457793 -0.35545006 0.56119984 0.33872002 0.6759146 0.16845031
0.42696273 -1.6850977 1.5149728 -1.1962261 3.301068 -0.5208294 0.9861308 -0.10870765
-0.41546848 -0.3752087 0.061180618 -0.7338056 0.759959 -0.5724671 0.016873484 -0.57228374
-0.026900942 0.029382372 -0.020455439 -2.622548 -0.5138336 -0.33042392 -0.14707334 -0.5593905
-2.3665316 1.2666498 1.6787589 -0.0038019598 -1.4411973 -0.43261358 0.618307 0.08857883
-0.39853922 1.5706933 0.83787006 0.6352078 -0.6194025 3.7495086 4.6692815 1.2636021
-0.31684202 0.12708083 -1.1932329 -1.7881938 0.13067089 0.02239394 0.73926556 0.037306774
0.23116744 -0.015213139 0.01624506 -0.027766747 0.627957 -0.79319507 0.24481073 -0.7655758
-3.6289701 -2.793964 0.8874128 -0.09810786 1.3296252 0.33971393 0.28277653 1.2082182
0.17155696 -1.5052911 0.40096968 -0.6832264 1.0579903 1.1977086 -2.3010104 -0.041637186
-0.32380083 0.6684492 0.6867906 0.9370852 -0.2499309 0.6389818 -0.8134497 -0.8470228
0.005000071 -1.3475133 -0.00036991388 -0.008465118 0.041573647 -0.2345325 0.3145397 -1.1975998
0.06025238 -2.4352975 1.6514081 5.74241 -0.6671013 0.36299324 -1.3040116 0.21802041
-0.29938024 -0.7708943 0.18271543 -1.1297402 0.24518833 -0.60721666 -0.069453396 0.43536
-0.6314032 -0.46475473 0.074822895 -0.004208299 0.6102624 -0.45464912 0.14325613 0.1647494
0.99787074 0.0049249125 1.1490753 0.014767233 -0.04371865 0.026710276 4.17251 -0.3272899
-0.5422061 -0.6197718 -4.93304 -3.9832654 -1.9218184 1.6754224 0.0381268 1.4280666
-0.6096708 0.3819871 -0.44460422 -0.49002358 0.013908625 -0.80629617 -1.7521634 -1.4442331
0.2197044 -2.8087823 0.90296626 0.11238016 0.008096685 0.5989115 0.4925428 0.1404897

fcs1.bias f4 [400]
00000000: 214b 473d 68a9 1e3e 2677 bb3d 2a33 ee3c
00000010: c1ec f0bd 2631 ee3d dd57 a13a 0d03 6d3d
00000020: 0382 abbd 2592 14be 0054 1fbe 4c35 53bd
00000030: 86d9 04be 923d 1bbe bb5d 2f3e f6bb 8d3d
00000040: 8735 bdbc ce94 1dbe 7180 fdbd 87bf 28be
00000050: 4bf8 2ebd c3d8 fe3d e924 bdbc 83a1 1d3d
00000060: 4e8a 49bc d04a d93d dd5e 2b3e 6de0 91bd
00000070: 7436 09be b388 d33d 91d2 eb3d 712d 6b3c
00000080: 8059 a2bd ebee 29bd 82e1 c93d 1e16 553d
00000090: 20df 7abd 12e4 4b3d 391d 5f3d 81ff 4abd
000000a0: a096 ccbd e7d7 2a3d 7101 2e3d d4b8 2c3e
000000b0: d352 f0bc a2b7 c83c 03cd 1c3d 32b6 a03d
000000c0: 52b4 a63d 4aff f7bd ee70 173e 858d 0c3d
000000d0: 56bb 333e 70a9 09be 486e 1f3e 3d86 023e
000000e0: ea6c 87bd a8c7 24be 0cda e73c e69f db3d
000000f0: 253b b5bd c3bc 933d 1a85 de3c a397 173e
00000100: c58f 2d3e 2c32 a23d 4fda f7bc 6476 73bd
00000110: 5db3 fa3d 5fa5 c0bd 9dba 85bd e1ec d4bd
00000120: d64c 31be b5a9 203e 321d e73d 4737 913d
00000130: 4399 033e b64a fb3d 540b f63d fd0f e7bd
00000140: 2c76 e83d e58a 4cbc 1d21 2b3e af26 1e3e
00000150: cb99 1f3d 9427 bfbd 6c83 273e ab7c 30be
00000160: ac7d 98bd 4738 543d 4f09 a43c 6c6b 07be
00000170: ea70 d0bd b1ba 0a3d 5c98 07bd d6f5 0ebe
00000180: da79 ce3d 2b4b 033e 2bc3 8abc 71b3 b23d
00000190: aeee 143d 4c0c c63d 325a 813a eeeb 583d
000001a0: b17b f73d 5ab5 5cbd 4703 003e 78d3 473d
000001b0: 7448 10be b304 0e3e 930e 8bbd 84a0 2ebe
000001c0: 0cab 35bd 59ea 30be 3000 4dbd 9c37 2ebd
000001d0: bd21 00be b7d9 113e c03b df3d 7828 b33d
000001e0: 9774 253e 2360 8fbd ba79 893d 1e22 053e
000001f0: e440 0e3e 823d 823d 2c83 a13d ecca 203e
00000200: 966e 143e 34e4 0ebe 1b46 123e 3a9f 8abd
00000210: 3632 e53d 3f1a 2ebe 4203 1f3e 73d3 143e
00000220: b59c 4cbd 4b90 223e 7e7d 123d c8b5 eabd
00000230: 4323 8d3d 249b e0bd e3a6 babd df77 1a3e
00000240: 15f9 a43b 97d9 c1bd f5e3 2abe d3ec 0dbc
00000250: 42a9 a73c 034a f8bc 2aab 043c d153 113e
00000260: 45ab 22be 8c57 253d e805 a4bc 7502 1dbe
00000270: 0d51 2dbe 06db 06bc 9a7a 2bbe 3189 303e
00000280: 05ca 19be c066 a2bb 0536 97bb f4f3 d0bd
00000290: a97d 263e 0c3e d0bc f9e4 87bd 7aec 103e
000002a0: f96d 693d e677 55bd 9e20 2dbe 9048 08bd
000002b0: 716c 31bd 2ec5 43bd b741 d43d 9bf8 60bc
000002c0: dc21 433d bfd9 113e 7e48 533b 0daf 273e
000002d0: f5ad 953d 0dea 04be 3edd b23d b9f8 99bd
000002e0: a871 0c3e 02bb 483d 9d9d d5bd 3be5 d6bd
000002f0: afd7 30be fac0 2abe 2b5f e2bd 0caf 353d
00000300: 2ae2 4bbd e912 0a3d 8739 18be bc49 83ba
00000310: 1275 a7bd e642 383d a77c f7bd 0862 ab3d
00000320: d119 95bd 4b27 993c 23b5 96bd fee2 133e
00000330: 67dc 873c 03e6 ac3d b034 8cbd 08fa 0e3e
00000340: a1dd 83bd 75e4 e23d 90be 2a3e 05fa b3bd
00000350: c04c 243d a3f9 0e3d 58b3 cbb9 f5c5 973d
00000360: 0dfa 1d3e eca8 87ba 5448 2e3d 8863 dc3d
00000370: 7936 12be b438 d43d 99b3 b63b a457 01be
00000380: c937 923d 65a2 a3bd 8246 03be c8fc 67bd
00000390: c23b b93c 0c2f ce3d ed53 9dbd 3ad8 143e
000003a0: c209 fcbd d25b 02be 4c08 8b3d 1a17 293e
000003b0: 5425 073e 830e 003e 8165 353c e483 78bd
000003c0: f2db 03be ac89 ffbd 8761 5d3d a5ad 45bc
000003d0: b942 ddbc 596a 08bd 8e51 dc39 e7ba d0bd
000003e0: 5c31 24bd cdcb 123e b595 bcbd a4bd 53bc
000003f0: ffc0 0cbe e1ef 8ebd 41ba 713d b34d 9b3d
0.048655633 0.15494311 0.09153585 0.029077131 -0.11763907 0.11630468 0.001230951 0.057864238
-0.08374407 -0.14508875 -0.15559387 -0.0515645 -0.12973604 -0.15160206 0.17125599 0.06920616
-0.023096813 -0.15388796 -0.12378014 -0.16479312 -0.04271726 0.12443688 -0.02308889 0.038484108
-0.012301041 0.106099725 0.16735406 -0.07122884 -0.13399678 0.10328808 0.11514772 0.014354096
-0.07927227 -0.041487616 0.09857465 0.052023046 -0.061247945 0.04977805 0.05447123 -0.049560074
-0.09989667 0.041709807 0.042481843 0.16867381 -0.029336369 0.024501625 0.038281452 0.07847251
0.08139862 -0.121092394 0.14789173 0.03431465 0.17551932 -0.13443542 0.15569413 0.1274652
-0.066125706 -0.16091788 0.028302215 0.107238576 -0.088491715 0.07213738 0.027163077 0.14803939
0.16949375 0.07919726 -0.030255465 -0.059439078 0.12241242 -0.09406542 -0.06529734 -0.103967436
-0.17314467 0.15689738 0.112848654 0.070906214 0.12851433 0.12270109 0.120138794 -0.112823464
0.113506645 -0.012484287 0.1671185 0.15444444 0.038965028 -0.09333721 0.16358727 -0.17235057
-0.07445845 0.051811483 0.02002397 -0.13224572 -0.10177787 0.03386945 -0.033104286 -0.13960966
0.10081835 0.12821643 -0.016938766 0.08725632 0.036360435 0.09670314 0.0009868799 0.052959375
0.12084139 -0.053883888 0.1250125 0.048785657 -0.14090139 0.1386898 -0.06789889 -0.1705342
-0.044352576 -0.17276897 -0.050049007 -0.042533502 -0.1251287 0.14243208 0.10900068 0.08747953
0.16157757 -0.070007585 0.067126706 0.13001296 0.13891941 0.06359388 0.07886347 0.15702409
0.1449531 -0.1395424 0.14284556 -0.06768651 0.111912176 -0.170022 0.15528587 0.14533786
-0.049954135 0.15875356 0.03576421 -0.11460453 0.06891491 -0.10967091 -0.09113862 0.1508479
0.0050345757 -0.0946533 -0.16688521 -0.00866242 0.02046645 -0.030308729 0.008097449 0.1419213
-0.15885647 0.040366694 -0.020022348 -0.15332969 -0.1692545 -0.00823093 -0.16745988 0.17239834
-0.1501847 -0.0049560964 -0.004614594 -0.1020278 0.16258873 -0.025420211 -0.0663547 0.14152709
0.056989644 -0.052116297 -0.16906974 -0.033272326 -0.04331631 -0.047795467 0.103640966 -0.013731147
0.047639713 0.1424322 0.0032239254 0.1637537 0.0730857 -0.12979908 0.08733605 -0.07518143
0.13715231 0.04900647 -0.10430453 -0.10492941 -0.17269777 -0.16675177 -0.11053308 0.04435639
-0.049776234 0.03370944 -0.14865695 -0.0010016481 -0.08176626 0.044985674 -0.120843224 0.08368307
-0.07280315 0.018695494 -0.07358768 0.1444206 0.016584588 0.08442309 -0.06845987 0.13962567
-0.06438757 0.11078731 0.16674256 -0.08787922 0.040112257 0.03490604 -0.000388528 0.07410804
0.15427418 -0.0010350025 0.042549446 0.107611716 -0.14278592 0.10362378 0.005575609 -0.12631088
0.071395464 -0.07989959 -0.12819865 -0.056637555 0.022611503 0.10067567 -0.07682023 0.14535609
-0.12306549 -0.12730339 0.06788692 0.16512719 0.13197833 0.12505536 0.011071564 -0.060672656
-0.12876871 -0.12477431 0.054048087 -0.012065326 -0.027009355 -0.033304546 0.00042022433 -0.10191899
-0.040086135 0.14335556 -0.09208242 -0.012923632 -0.13745497 -0.06979347 0.059015516 0.07583179

bns1.weight f4 [400]
00000000: 6b93 913e 044a 763e e4a7 c83e f610 713e
00000010: 7225 a8be 34a2 203e eb1f ef3e 9f2b fc3e
00000020: 8db7 673f 472e 6a3e 928d 193e bd02 733e
00000030: edc7 a73e feb3 a43e cc6f b73e c348 cd3e
00000040: 1110 21bd c7db 4c3e 12b3 cf3e b503 7d3e
00000050: 5593 cbbe d892 653e 2b5d 823e 34c6 f53d
00000060: c522 113f 81c1 9a3e dacc 8f3e 99bb fb3d
00000070: 925f e03d 5906 3f3f 4d66 933e de8f 963e
00000080: 5acd f93e c611 483b ff6a b73e c7ae f13e
00000090: 0231 443e 4d80 b03e 0bd6 893d ea35 9d3e
000000a0: e348 b93e 5dac 9f3e 6267 b23e 16dd bc3e
000000b0: d144 943e 19eb 643e ca59 bc3d 9a35 883e
000000c0: a092 f6bc 2d3d cf3e 6e9c 053f 69a6 ea3c
000000d0: f033 653f db74 b63e 6c9f 8b3e c009 233f
000000e0: defe 863e 54bd 5d3e 58fc 393e d1b0 ce3e
000000f0: cb89 313d 13eb 463e 3008 a63e 4c85 963e
00000100: 2e71 983e 3c81 bd3e 7b22 ac3e 5037 063f
00000110: 8943 ff3e c410 093f 25c9 d53e 66ba 923e
00000120: b9ce da3e aace 943e e2da 373f 63b0 0f3e
00000130: 75bd c03e 4807 1b3f 7013 a93e b7ca 4a3e
00000140: 0887 343e 8125 a63e 2a4f 283e 49dd a13e
00000150: dac0 d73e 16a7 543e 7363 493e be2c fa3d
00000160: 623e 153f 7ca0 933e 29db 15bd b705 be3e
00000170: 9443 483e 84c6 fc3d cabb f83e 658a a03e
00000180: 3c2a 593e 78d8 9e3e 3899 a23e 46bd 723e
00000190: 886f 833e 489c 133e bf33 c53e dfac d13e
000001a0: 2574 533e c53e 973e c3e0 933e 9441 f33e
000001b0: 1c6e b9be 2cfb 603e dc36 a03e f132 813e
000001c0: 3d65 ad3e 7fce 553e 3b96 c73e 9fc9 a33e
000001d0: 709f 883e 2ed1 c53e e459 923e 1211 7c3e
000001e0: 3dce bb3e d452 6d3e 19e9 b3be 7893 913e
000001f0: f5ac a93e a503 f43e 882d a53e c9e8 ab3e
00000200: 85ea 853e 36ab 3d3e 6905 933e 161d ed3e
00000210: b36e 643f 58b2 9e3e 044c 953e 1d7a 933e
00000220: 3c19 b53e dc25 a43e 2c49 a33e 8441 313e
00000230: 17af 5b3e c026 443c df96 ef3b d04c 813e
00000240: d3c2 7f3e 3516 ef3e e54e ae3e 95ac 823e
00000250: 2593 213e e737 303d 1462 f63e edf3 b83e
00000260: 3e0a 9abe f773 023d b73f 083e 0991 593e
00000270: 2f62 8d3e a4df f63e ad63 bc3e 4029 423e
00000280: cac3 4e3e 7e93 9b3e 3d27 b43e fe7a 753e
00000290: b3ff 8d3e 9353 7b3e dcba 7e3e 329a bc3e
000002a0: f1aa 4a3e f0d8 93bd 8810 413e dd5c cc3e
000002b0: b9fc 143e d657 633e 4352 e03e 1b0d 6b3e
000002c0: a627 603e 4e79 353f ccb0 693e f824 173e
000002d0: e091 9abb f224 aa3e 5771 c43e 505e ca3e
000002e0: adb8 7b3f 058b 083f 53af c53e 45bc d33e
000002f0: 2bc2 cd3d 141b 4b3e 8f8f 933e 1ad9 9a3e
00000300: a5c4 8f3e 68e4 5f3e 20cb 223e b5ee 293e
00000310: 469b 483e aebe 083f e9e5 703e f50d 2bbd
00000320: 1c68 963e a352 ba3e b613 793e e35e df3e
00000330: 0431 d03e 9644 1f3e d0e4 51bd 9226 903e
00000340: e9b5 823e daad 5ebe a66d 993e a578 ae3e
00000350: fb08 f63e a53a ab3e c498 4a3e f940 763e
00000360: 641c a83c c93a b63e 6ddd 053f bf94 bb3e
00000370: b718 8d3e 48ea 543f 6a36 ba3e ec75 893e
00000380: e9c1 353e d1ff 41be fb60 a13e d7ab a03e
00000390: f048 7d3c bba0 643e 7692 bd3e 278d b43e
000003a0: 6a84 b63e 80ad e63d ad6a 043e b2e3 e13e
000003b0: be19 eb3e 25fc 7c3e e2ea 9f3e 54bd db3e
000003c0: d038 db3e b1e6 e23e c7f3 ae3e b1cf 903e
000003d0: 6a60 193c cbf9 9d3e cf6a 423e 50ce d13d
000003e0: d3af 9f3e 952b 6b3e 54dd 113e 173b dfbd
000003f0: 2f33 e73e b399 b43e a753 6abe 1362 923e
0.28432783 0.24051672 0.3919059 0.23541626 -0.32841069 0.15686876 0.4670404 0.4925203
0.9051445 0.22869216 0.14995411 0.23731513 0.3276972 0.32168573 0.35827482 0.40094575
-0.039321963 0.20005713 0.40566307 0.24708445 -0.39760843 0.22419298 0.25461707 0.12000695
0.5669368 0.30225757 0.28085977 0.12291641 0.109557286 0.7461906 0.28788987 0.29406637
0.48789483 0.0030528172 0.3582382 0.47203657 0.1915932 0.34472886 0.067302786 0.30705196
0.3618842 0.3118619 0.348445 0.36887425 0.28958753 0.22355308 0.091968134 0.26603395
-0.030099213 0.4047636 0.5219182 0.028643804 0.89532375 0.3563603 0.27270067 0.6368675
0.26366323 0.21654254 0.18162668 0.40369275 0.0433443 0.19425611 0.32428122 0.29398572
0.2977385 0.3701266 0.33620057 0.5242815 0.49856213 0.5354121 0.41755024 0.28657836
0.42735842 0.29063922 0.71818364 0.1403213 0.37644544 0.60557985 0.33022642 0.19803892
0.17629635 0.32450488 0.16436449 0.3161414 0.42139322 0.20766863 0.19666843 0.12215565
0.58298314 0.28833377 -0.03658596 0.37113735 0.19557029 0.12342551 0.48580772 0.31355587
0.21207517 0.31024528 0.31757522 0.23705015 0.2567103 0.14415085 0.38516042 0.40952203
0.20649774 0.29540077 0.28882417 0.4751097 -0.3621682 0.21970814 0.31291854 0.25234178
0.338663 0.20879553 0.38981804 0.31989762 0.2668414 0.38636154 0.28584206 0.24615887
0.36680785 0.23176128 -0.35138777 0.28432822 0.33139768 0.4765903 0.322613 0.33576038
0.26155487 0.18522343 0.28715065 0.46311253 0.89231414 0.3099544 0.29159558 0.28804103
0.35370815 0.32060134 0.31891763 0.17310148 0.2145351 0.011972129 0.0073116864 0.25253916
0.24976663 0.4669663 0.34044567 0.25522295 0.15778787 0.043022063 0.48121703 0.361236
-0.3008594 0.031848874 0.13305555 0.21246733 0.2761397 0.482175 0.36794797 0.18961048
0.20191875 0.30385965 0.35186186 0.23972699 0.27734146 0.245436 0.24875969 0.36836392
0.19791771 -0.07219112 0.18853962 0.399146 0.14549531 0.22201476 0.4381276 0.22954218
0.21890125 0.7088822 0.22821349 0.14760196 -0.0047170967 0.33231312 0.3836772 0.3952508
0.9832867 0.53337127 0.38610324 0.41354576 0.100468 0.19834548 0.28820464 0.3024376
0.28079715 0.21864474 0.15897799 0.16594966 0.19590482 0.53415954 0.23525204 -0.041761357
0.29376304 0.36391172 0.24323925 0.4362708 0.40662396 0.15553507 -0.051243603 0.28154427
0.2552941 -0.21746007 0.29966468 0.3407642 0.48053727 0.3344318 0.19784838 0.24048223
0.02052135 0.35591725 0.52290994 0.36636922 0.27557918 0.83169985 0.3636964 0.2684778
0.17749752 -0.18945242 0.31519303 0.31381103 0.015459284 0.22326939 0.37025803 0.3526394
0.356479 0.11263561 0.12931319 0.4411903 0.45918077 0.2470556 0.3123389 0.42917883
0.42816782 0.4431663 0.34170362 0.28283456 0.009361366 0.3085464 0.18986057 0.10244429
0.3118883 0.22965844 0.14244586 -0.10899942 0.45156237 0.35273513 -0.22883473 0.2859045

bns1.bias f4 [400]
00000000: bca7 08be 7593 60bf 0092 29bf e18c 86be
00000010: 76f4 b8be 4cb9 6ebf 25f9 3cbf 0d27 2bbf
00000020: 6b11 1dbf 1cc9 c1be d0f5 e8bd 2c67 a9be
00000030: 0f93 3cbf c00c efbe b034 a8be 8d01 38be
00000040: 90ca 8abf 57a7 1abe 9cc6 18bf 5542 8ebe
00000050: 2fa6 35bf 649b aebd c8cc 33be d3c1 36bf
00000060: b38b 64bf 64a1 f9be 70aa edbd 1a12 a9bd
00000070: 4b93 91bf 13d0 40be 4e73 5fbe e276 70be
00000080: e876 4ebf f7ed 44be b4de 55bf d1d4 f8be
00000090: 9dff 6bbe 76f6 0cbe 50aa adbf 7cda 90be
000000a0: d6e9 21bf 4077 a0bf 10b2 dbbe e9d1 cebe
000000b0: 7afa ccbe 9152 0dbf 2be7 78be c8ad 2bbf
000000c0: 5f44 d3be e335 c5be cc38 51bf a4a8 ecbd
000000d0: 0819 f5be 42bf 51be 3468 90be 12d2 fabe
000000e0: 4ceb 36bd 677d d8bc b409 1ebe 68eb eabe
000000f0: e238 11be 14fd 77be 19d2 6ebf 4bfa 2abf
00000100: 7e8a afbe 16d4 cbbe 1baf 11bf 352d 7fbf
00000110: b02e d7be 02a8 3bbf 0389 9dbe 0604 93be
00000120: fb69 a2be a80c c0bd 71b9 4fbf 62a5 7fbf
00000130: f04c 50be 4c81 dfbe 28a5 9abe 8a84 30be
00000140: d846 4abf 8e91 89be c34b 8bbc ef77 ddbe
00000150: 553f d4be 6c14 cabd 1938 f3bd e2e8 d9bd
00000160: ffe1 7abf a583 97be d568 a5bd ff0a 3dbe
00000170: c469 48be 856a e0be 8c38 07bf d52e febe
00000180: 3c4e 2fbe cab4 edbe 0f4e 9bbe cbd0 c9be
00000190: 9fe8 52be 108b 28bf 7584 b8be 4f32 36bf
000001a0: 241c c5bd 4ff5 c6be 94ee 5bbe b939 ebbe
000001b0: b22c 8abf 1b38 4cbe 4caa f0be a11e 3bbe
000001c0: 7a6d 33bf 552c 63be 9b6e f8be 4167 80be
000001d0: 205e 22be 0664 d8be 6156 25be af9b cfbe
000001e0: 4f32 b8be c8a2 1bbe 3df9 24bf b66e eabe
000001f0: 44e5 77bf c29f ffbe ea01 bebe 2941 b5be
00000200: 2aaa 78be 318f bfbc 0a74 aebe 777f 27bf
00000210: 63ac d5bd cca1 fabe 9196 15be ad03 20be
00000220: 4a3f cabe 9629 91bf e70d a2be 39c8 4dbf
00000230: cec2 cdbe 1773 f7bd 002b d1bd 2013 38bf
00000240: a1e8 2bbe c5f3 b9bf 349a 14bf eb0e e7bd
00000250: 6890 90bd bea5 17be 784d 46bf af74 81bf
00000260: efb1 49be 9eb4 743f eef4 04bf cdaa 1cbf
00000270: 974e 6dbe 8a9f fcbe 94ba b5bd 38ef c0be
00000280: f0a7 36bf e335 94be 3649 74be c766 4cbe
00000290: 5a8d 97be 9341 acbe 93ed aebe 6a1d 40bf
000002a0: 0949 ebbe 76bc 39be e448 bcbd fea4 c0be
000002b0: 14b4 8dbf 0052 a0be 20d0 4dbf c12d a2bd
000002c0: f392 93be a8a2 09bf 6403 44be 72ba 9e3c
000002d0: ad8b ecbd bcdb f2be 308c 88bf 691d a0bb
000002e0: 7410 d4be 4df6 6fbf 7963 87be a5b6 c1be
000002f0: ad01 02bf 41b0 92bd 8784 c0be 0ead 1ebe
00000300: 620d babe 52f9 aabe 4da8 9fbf df17 50bf
00000310: d3c6 ffbd 3aef 1dbf 8fa5 1dbe 01da 89be
00000320: c581 49bf 0f25 1cbf bfcd a6be f7c9 18bf
00000330: 60e1 15bf ca0f 47bf 5522 abbe 170e 71be
00000340: f3ae 1ebe 3c53 92bf 5dab 41be 6eba 36be
00000350: 4206 44be 697d ddbe 2cdc 63bc bc27 22be
00000360: 90d0 8fbd 176c eebe dd4c 0ebf 1061 b2be
00000370: 020a 12bf 85e3 9dbe b5c7 b2be e66f 8abe
00000380: f86a 39be 1ca6 d4bd 4dae 12bf 0b66 9cbd
00000390: 9492 50bf 3931 1ebd 27ab bcbe 7edb 8cbe
000003a0: 3e9c eebe 3f10 a7bf 43c2 16bb f47e d7be
000003b0: 4ecd 72be 6bc4 77be 9683 babe 2731 dbbe
000003c0: 0a2b 01bf 06f1 9fbe 7989 a3be fc32 81bf
000003d0: d269 88bd 225c 7ebe ec97 4abe 0240 fabe
000003e0: 14c0 78be b29e 05bf 2799 773d 1705 9dbf
000003f0: 3bf6 ecbe 00b2 b9be 880a 3bbf ce10 84be
-0.13345236 -0.87725 -0.66238403 -0.26279357 -0.3612401 -0.9325149 -0.73817664 -0.6685646
-0.613547 -0.37848747 -0.1137501 -0.33086526 -0.73661894 -0.46689415 -0.32852697 -0.17969342
-1.0843067 -0.15102898 -0.59678054 -0.27784982 -0.709567 -0.08525732 -0.17558587 -0.713895
-0.89275664 -0.48755944 -0.11604774 -0.08255406 -1.1373075 -0.18829374 -0.21821329 -0.2348285
-0.80650187 -0.19231401 -0.83542943 -0.48599866 -0.23046727 -0.13765892 -1.35676 -0.2829169
-0.6324743 -1.2536392 -0.42909288 -0.40394524 -0.40034848 -0.5520411 -0.24306934 -0.67062044
-0.412631 -0.38517675 -0.8172729 -0.11555603 -0.4787066 -0.20483115 -0.282045 -0.48988396
-0.04465799 -0.026426984 -0.15433389 -0.45882726 -0.14181855 -0.24217635 -0.93289334 -0.66788167
-0.3428535 -0.39810246 -0.56907815 -0.99678355 -0.42027807 -0.73303235 -0.30768594 -0.28714007
-0.31721482 -0.09377414 -0.81142336 -0.9986173 -0.2034185 -0.43653333 -0.3020413 -0.1723806
-0.7901435 -0.26868862 -0.0170039 -0.43255565 -0.41454569 -0.098671764 -0.11875934 -0.10640122
-0.9800109 -0.29592624 -0.08076636 -0.18461226 -0.19571596 -0.43831268 -0.5282066 -0.49645105
-0.17119688 -0.46426994 -0.3033299 -0.3941711 -0.2059655 -0.6583719 -0.36038557 -0.71170515
-0.09624508 -0.3885903 -0.21477729 -0.45942476 -1.079489 -0.19943278 -0.47004926 -0.18273403
-0.7008892 -0.2218488 -0.48521885 -0.25078776 -0.15856218 -0.42263812 -0.16146232 -0.40548465
-0.35975882 -0.15198815 -0.6444281 -0.4578759 -0.96834207 -0.49926573 -0.37110835 -0.35401276
-0.24283662 -0.023383709 -0.34072906 -0.6542887 -0.10433271 -0.48951566 -0.14608218 -0.15626402
-0.3950141 -1.1340816 -0.31651232 -0.8038364 -0.40187687 -0.120824985 -0.1021328 -0.7190418
-0.1678796 -1.4527518 -0.58047795 -0.11282142 -0.07058793 -0.1480932 -0.7746196 -1.0113734
-0.19696783 0.955881 -0.51936233 -0.6119812 -0.23174511 -0.4934047 -0.088734776 -0.3768251
-0.7135 -0.28947362 -0.23856053 -0.19961081 -0.2960003 -0.3364378 -0.3416563 -0.7504488
-0.4595416 -0.18138298 -0.0919359 -0.3762588 -1.107058 -0.3131256 -0.803957 -0.07918883
-0.2882305 -0.5376382 -0.19141918 0.019376013 -0.115500785 -0.4743327 -1.0667782 -0.0048863185
-0.41418803 -0.937352 -0.2644308 -0.3783466 -0.5078381 -0.07162524 -0.3760111 -0.15495703
-0.36338335 -0.3339334 -1.2473236 -0.81286424 -0.124890946 -0.61693156 -0.15395187 -0.26924136
-0.7871364 -0.60994047 -0.32578847 -0.59683174 -0.5854702 -0.7775847 -0.3342463 -0.23540531
-0.15496425 -1.1431651 -0.18913026 -0.17844555 -0.19143012 -0.43259743 -0.013907474 -0.1583547
-0.07022202 -0.4656684 -0.55586034 -0.34839678 -0.5704652 -0.30837646 -0.3491799 -0.27038497
-0.18107212 -0.10383245 -0.5729721 -0.07636651 -0.8147366 -0.03862116 -0.3684933 -0.2751121
-0.46603578 -1.3051833 -0.0023003973 -0.42089045 -0.2371113 -0.24196021 -0.36428517 -0.42810938
-0.504563 -0.31238574 -0.3194082 -1.0093684 -0.066608086 -0.24839833 -0.19784516 -0.4887696
-0.24292022 -0.52195275 0.06044879 -1.2267178 -0.4628161 -0.36268616 -0.73062944 -0.2579407

bns1.running_mean f4 [400]
00000000: 17a9 a040 464d 2ac0 e769 b93f 6fb2 dd3e
00000010: ba25 bbbf 418d 10c0 7edc 483e 0078 fabe
00000020: cc11 b4bf 98e3 07c1 4f43 af40 9236 7bc1
00000030: 8fe3 1ec1 0fc4 e1c0 9e39 06c1 7f8e 643f
00000040: 0707 9bbf 8a1a 45c0 9616 8840 17e7 633f
00000050: 3295 7ac0 3a92 a33f dc01 d23f 0f2e 01c1
00000060: 97ff d03f 5a1e 32c0 2259 e8bf d695 c8c0
00000070: bb60 b1bf a52c 61c0 2e5f 25c0 35fa 0841
00000080: 9fd1 b4c0 489c 5bc0 4fd6 64c0 30ef 6cc0
00000090: 4858 d5bf 718d 303f ff2a bd40 36c9 3b40
000000a0: 9455 46c0 397e b93f ad42 91c0 d197 97bf
000000b0: 93a2 b6c0 3e5c 70c0 1489 aabe 81cd 88c0
000000c0: f710 88c0 8d53 eec0 5c95 acbf eb1e 8640
000000d0: 604e 37c0 904e 71c0 d204 dcc0 2fae cfbe
000000e0: bb1a 8640 edbe 4a3f 9807 5840 cc3c aac0
000000f0: 85e6 3640 f99c 8340 9714 7a40 ae09 f3c0
00000100: e5ee abc0 fa3e 003e 7996 11c1 258e ab3f
00000110: 44e9 e4bf 839c 99bf 6d3f 95bf cf28 55bc
00000120: 15f8 9cbf a550 8bbf 2c21 a93f 40f8 77bf
00000130: 3729 20bd 5c2e 2d40 c811 9740 4887 bcc0
00000140: 43bf 3c40 0506 ca3f d45e 44c0 7dac ecc0
00000150: 62b1 c7bf e61e 5640 78a5 0cc0 f467 30bf
00000160: 00f3 1740 73db ed3f 56eb 1040 d8cb 0bc0
00000170: 8c39 4cc0 1e73 09c0 8a24 f240 362f 29c1
00000180: 9005 aac0 b7c7 6a40 56ab b7c0 8b32 15c0
00000190: 3df1 12c1 b461 583f 0984 1bbd 4f57 92c0
000001a0: 9d24 5840 0d62 7bc0 0784 90bf 9a2e 46be
000001b0: 45e7 9abf b274 993f 07ee 17c1 29e5 ec40
000001c0: 417d afc0 554d b240 1cdf 633f 94df 8a3e
000001d0: 9b23 53bf 0480 e8c0 4a87 d9bf 8e7b aac0
000001e0: 0566 3fbf 43c5 68c0 80f4 14c0 f6d1 ccc0
000001f0: c5d9 0f3f 1b3a 5bc0 d3ac c740 1906 2b40
00000200: d8f4 1cbf fc4f 01c0 e4e1 f5c0 3873 3140
00000210: 8a4b 87bf aef4 20bf 9b77 72c0 2b80 bfc0
00000220: 53c2 bd3f e0b7 d73f 42ae a03f 7032 8040
00000230: f919 8bc0 0d7d f8bf 3ca3 e33f 54e1 27c1
00000240: da1d 3440 4851 7840 2f27 82bf 83aa 08bf
00000250: 3012 2b40 339a 2940 cfe6 a6c0 889f f9c0
00000260: 0344 0040 c03c 13c0 d76b 9940 2799 5bc0
00000270: 036b 66c0 8801 5a3e 6444 db3e 1174 05c0
00000280: c96a 12c0 04bf 1ac0 70f3 7a3f a525 af40
00000290: 2bfb 393f a5c5 4540 6965 71c0 f43c b43f
000002a0: b27f 2bc0 674d 4c40 b3ec 25c1 67bf 443e
000002b0: 13a2 11c0 11e9 5140 0ea3 a83f d0a2 9740
000002c0: b22d 6f40 0bc4 d43f 584f 6840 ec7e 59c0
000002d0: da9d 90c0 6173 0ebe bc49 0740 6f56 91be
000002e0: a908 efbf 0760 b3c0 196a a8bf 3750 1040
000002f0: 7218 47c0 490d ad3f 851a a2c0 08a9 26c0
00000300: 99ae 123f d74b 5fc0 3efb 803c 19e3 91c0
00000310: 4ded a6bf 9f71 1ac0 9e0f 8ac0 fc85 433f
00000320: 14ba cebb 7b27 2340 6611 21c1 1382 4fc0
00000330: be9c 00c0 7005 dd40 80ab a440 5e11 253f
00000340: 0656 3640 cb80 d73c d0d7 3840 b7ad 0740
00000350: a877 543f 87a5 1b3f d8fb 53be fdad 443f
00000360: c82c ebbf f274 9340 e5ff 9abe bb61 613e
00000370: 13cf 22c0 3022 a7be 1503 88c0 3200 bcc0
00000380: 7037 9cbe 563e 5940 cb17 03be 0218 2c3f
00000390: c101 b53f 9085 b1bf 0023 25bd 87b7 30c0
000003a0: a607 01c0 86c2 803f 24e3 89bf 27d6 e3bf
000003b0: b5e7 f2bc ff5e b93f e5c1 8ec0 2bd0 47bf
000003c0: dcd9 89c0 cd51 dcbe 92d9 f43f 60e8 8fc0
000003d0: be45 40bf 6ade 2e40 b166 5840 8e8f a8c0
000003e0: 59c4 90c0 beac 28c1 37e8 2740 dc78 8f3e
000003f0: 39f2 36c0 145a a4c0 cb0d babf 9aed f5bf
5.020641 -2.6609664 1.4485444 0.43300197 -1.4620888 -2.2586215 0.19615361 -0.48919678
-1.4067931 -8.493065 5.4769664 -15.700823 -9.930556 -7.055183 -8.389067 0.8927993
-1.211152 -3.0797448 4.252757 0.8902449 -3.9153562 1.2779 1.6406817 -8.073745
1.6328 -2.7831025 -1.8152201 -6.2682905 -1.3857645 -3.51835 -2.5839343 8.561086
-5.6505885 -3.4314137 -3.5755804 -3.7020988 -1.6667566 0.6896582 5.9114985 2.934156
-3.0989733 1.4491645 -4.539389 -1.1843206 -5.7073455 -3.75563 -0.33307707 -4.275086
-4.252071 -7.447699 -1.3483081 4.191274 -2.8641586 -3.77042 -6.8755884 -0.4056258
4.190763 0.7919758 3.3754635 -5.3199215 2.8578198 4.1129117 3.9075067 -7.5949316
-5.372912 0.12524024 -9.0992365 1.3402754 -1.7883687 -1.2000889 -1.1659981 -0.013010218
-1.2263209 -1.0883986 1.3213248 -0.96863174 -0.039101806 2.7059546 4.7209206 -5.891514
2.9491737 1.5783087 -3.0682878 -7.3960557 -1.5601008 3.345636 -2.1975994 -0.6890862
2.3742065 1.8582596 2.2643638 -2.1843166 -3.1910124 -2.1476512 7.5669603 -10.574026
-5.313179 3.6684396 -5.739665 -2.33121 -9.183896 0.84524083 -0.037967715 -4.573158
3.3772347 -3.9278595 -1.1290292 -0.19353715 -1.2101828 1.1988738 -9.495612 7.4029737
-5.48404 5.57194 0.8901231 0.27123702 -0.82476205 -7.265627 -1.6994412 -5.3275824
-0.74765044 -3.63704 -2.327423 -6.40063 0.56191665 -3.4254215 6.2398467 2.6722472
-0.613111 -2.0205069 -7.6838245 2.7726574 -1.0569928 -0.6287335 -3.7885501 -5.9843955
1.4824928 1.6852989 1.2553179 4.006157 -4.3469205 -1.9413162 1.778419 -10.492512
2.814322 3.879961 -1.0168208 -0.5338518 2.672985 2.6500366 -5.215675 -7.800724
2.004151 -2.300583 4.794414 -3.4312227 -3.6002815 0.21289647 0.42825615 -2.0852091
-2.2877676 -2.4179087 0.98027706 5.4733453 0.72648877 3.0901883 -3.7718146 1.4081101
-2.679669 3.1922243 -10.370288 0.19213639 -2.2755172 3.2798502 1.317476 4.7386246
3.737164 1.6622328 3.6298428 -3.3983717 -4.519269 -0.13911201 2.1138754 -0.28386256
-1.8674518 -5.605472 -1.3157378 2.254896 -3.110867 1.3519679 -5.0657372 -2.6040668
0.57297665 -3.489004 0.015744802 -4.558972 -1.3041168 -2.413185 -4.3144064 0.7637632
-0.0063088033 2.5492847 -10.066748 -3.242314 -2.0095668 6.9069138 5.145935 0.64479625
2.8490005 0.02630653 2.8881721 2.1199777 0.8299508 0.6079945 -0.2070154 0.76827985
-1.8373041 4.6080256 -0.30273357 0.22009937 -2.5438888 -0.3264327 -4.250376 -5.875024
-0.30511045 3.3944297 -0.12802045 0.67224133 1.414116 -1.3868885 -0.04031658 -2.7612016
-2.0160918 1.0059364 -1.0772443 -1.7799729 -0.029651502 1.4482116 -4.461169 -0.78052014
-4.307844 -0.4303116 1.9128897 -4.497116 -0.7510642 2.732325 3.3812678 -5.267524
-4.523968 -10.542173 2.6235483 0.28021896 -2.858534 -5.135996 -1.4535459 -1.9213135

bns1.running_var f4 [400]
00000000: 82f7 6341 2026 0743 a34e 8742 1e3c 8841
00000010: d4f4 f942 193e 9f42 798e e341 2438 4a42
00000020: 0c28 da42 3597 7d42 b4c3 a942 8469 2442
00000030: 2579 2142 391d 1242 141d 1c42 c370 b941
00000040: 60c3 ab43 d46b 3d41 e63f 8142 efe6 0143
00000050: eab7 3443 4a79 9141 6cb8 fd41 36b1 6043
00000060: b7eb 4742 c66b 7e42 cc22 0142 68eb be42
00000070: 51af 8943 9555 9742 bfe2 7641 6d1c d842
00000080: 3f22 1742 b72b 9243 4ab6 1f42 cd10 3b42
00000090: cabe 0942 5789 bc41 1453 8f43 2282 d342
000000a0: bcdb ea42 9f5b b542 57b1 0043 dfaa a841
000000b0: a6ad 3c42 2a4c 4a42 4bcf e342 37c8 e442
000000c0: 0674 6242 919b 9e42 47c9 1143 f5cc 8543
000000d0: 7c16 cc42 a534 1142 8718 3442 3620 6242
000000e0: e8b2 e041 e1d0 c141 91ff df41 2381 0e42
000000f0: 5c2c 8943 110f da41 7523 8243 a93d b041
00000100: bc7a 2042 be0b 0342 7a9e 0943 7889 5142
00000110: d9b6 a341 588b 4042 87cf 0542 fd47 c542
00000120: 1575 8b42 d285 a941 f084 2442 f611 2143
00000130: 4f82 5b42 132d 3742 143b 3042 2557 9342
00000140: aac4 fc42 9dc0 4c41 125e 4842 96aa ae41
00000150: c0f5 bf42 1b76 9041 1deb a442 0c1f 4942
00000160: b5f4 9542 f055 9042 b882 b943 edd4 4f42
00000170: 96ee 4542 4e66 1d43 20ec 0643 5cca 3742
00000180: 7ce0 3442 254a 8542 06c4 d341 dc69 c841
00000190: 2b0c 0042 07c3 9942 085c 2842 a50f c742
000001a0: fe79 7b41 cc8e 0242 6787 7842 fb5c 2342
000001b0: b853 5e43 6781 b341 c7cf 2242 178c 1142
000001c0: 846f 4842 3b6d bc41 936f d241 b013 1143
000001d0: ab40 3842 5ea2 4642 0185 3442 1343 6941
000001e0: 4080 2f42 0238 ba41 143e 8442 b852 2042
000001f0: a9b9 2043 15ea b442 96c1 f541 6594 5042
00000200: c00e 7c42 68fa c441 6b39 f541 3308 a441
00000210: fb84 cc42 7dce cb41 cab7 3b42 359f b341
00000220: ef6f de42 44fe a442 4a6a a041 0899 3543
00000230: d60d 9142 a41d 4f43 f5c8 0343 2849 4542
00000240: ea79 5242 594c 0a43 19b5 f542 47e4 0642
00000250: 112d aa42 4137 9a43 798f 7041 b851 3d42
00000260: 9479 1542 15b8 5c44 a9b8 2943 5563 2a43
00000270: f272 af41 c1af 6342 b4f8 7f42 6fd0 4342
00000280: 3727 e242 1005 0042 17c5 0442 7645 3742
00000290: 72fc 6942 98af 0e42 5523 7742 9c37 ae41
000002a0: 36d9 5942 4a25 0243 7bdf 4542 f0ad 6a43
000002b0: 6213 4543 35ec 4742 3685 fb42 40ed 5d41
000002c0: ebbb da41 b8b3 7d42 c449 b341 db88 0e42
000002d0: 9b27 4043 fc42 7741 4147 4f43 ab20 8642
000002e0: 7684 ae42 98cb eb41 0e53 6842 5ceb de41
000002f0: ae15 0543 47a4 0f43 1c86 0842 fd0e 5f41
00000300: 0f60 5142 e784 cd41 52ee 3743 eab5 0e43
00000310: 1c3c d741 9323 2843 14a4 4842 afe0 2b43
00000320: e324 1243 a3ac d442 a58e fc41 3700 ba41
00000330: dd00 2e42 3f5e 3e42 b24f b942 a54a 6442
00000340: 8196 2e42 98e5 c842 1cf2 c842 2544 9f41
00000350: db61 5342 6389 d741 684f 2742 3cc4 bf40
00000360: 5111 b243 95f5 8342 7e09 fe41 6fec 0b42
00000370: a508 8542 8cb5 e842 7de8 8e41 cc54 fc41
00000380: fbed 2742 fae9 1643 5920 c542 a814 5142
00000390: f08f 9c42 6116 1141 7946 6a42 5ee2 0342
000003a0: 0711 9441 c644 4a43 b89b bd41 9be1 ae41
000003b0: a0b9 3642 3424 9741 c5a9 1042 b17d c541
000003c0: 5890 5742 4142 1242 1cbc 0043 59d6 bc42
000003d0: b316 8143 83e3 7242 67a1 7c42 3c76 3a42
000003e0: 5bf1 8542 4bb1 d841 976c d541 e7d8 8043
000003f0: 74c2 ce41 3e65 cb42 d4da 4c43 3ea5 2142
14.247927 135.14893 67.65359 17.029354 124.97818 79.621284 28.444567 50.554825
109.07822 63.397663 84.88223 41.103043 40.368305 36.528538 39.028397 23.18006
343.52637 11.838825 64.6248 129.90208 180.71841 18.184223 31.71505 224.69223
49.98019 63.605247 32.28398 95.45978 275.36966 75.66715 15.430358 108.05552
37.783443 292.34152 39.928017 46.766407 34.436317 23.56706 286.64905 105.754166
117.42917 90.67895 128.69273 21.083433 47.16958 50.57438 113.90487 114.391045
56.613304 79.30384 145.78624 267.60123 102.043915 36.30141 45.023952 56.531456
28.087357 24.226992 27.999788 35.62611 274.34656 27.257357 260.277 22.030107
40.119858 32.761467 137.61905 52.384247 20.464281 48.136078 33.452663 98.6406
69.728676 21.190342 41.12982 161.07016 54.877254 45.794018 44.057693 73.670204
126.38411 12.797025 50.091866 21.833294 95.97998 18.057669 82.459206 50.28032
74.97794 72.16785 371.02124 51.957935 49.482994 157.39963 134.92236 45.947617
45.219223 66.64481 26.470715 25.05169 32.011883 76.88091 42.089874 99.530556
15.717283 32.63945 62.13223 40.8408 222.32703 22.438185 40.702908 36.386806
50.108902 23.553335 26.30448 145.0769 46.063152 49.65856 45.129887 14.578876
43.875244 23.277348 66.12125 40.08078 160.72523 90.45719 30.719524 52.144917
63.014404 24.622269 30.653036 20.504004 102.25973 25.475824 46.92948 22.452738
111.21862 82.49661 20.051899 181.59778 72.52702 207.11578 131.78499 49.32144
52.619057 138.29823 122.85371 33.722927 85.08802 308.43167 15.0350275 47.329803
37.36873 882.8763 169.72133 170.38802 21.931126 56.921635 63.992874 48.95355
113.07659 32.004944 33.19247 45.817833 58.49653 35.67148 61.784504 21.777153
54.46212 130.14566 49.468243 234.67944 197.07571 49.98067 125.76018 13.870422
27.341757 63.425507 22.411018 35.633648 192.15471 15.453854 207.27834 67.063805
87.25871 29.474411 58.08111 27.864922 133.08469 143.64171 34.130966 13.941159
52.343807 25.689894 183.93094 142.7106 26.90435 168.13896 50.160233 171.87767
146.14409 106.33718 31.56965 23.250105 43.500843 47.592037 92.655655 57.072895
43.646976 100.448425 100.47287 19.908274 52.845562 26.942083 41.827545 5.9927044
356.13528 65.97965 31.754635 34.980892 66.516884 116.35458 17.86352 31.541405
41.982403 150.91397 98.56318 52.270172 78.28113 9.067964 58.56882 32.97106
18.508314 202.26865 23.701035 21.860159 45.681274 18.892677 36.16579 24.686373
53.89096 36.5647 128.7348 94.41865 258.17734 60.72218 63.15762 46.615463
66.9714 27.086569 26.678022 257.69455 25.844948 101.69774 204.8548 40.41137

fc2.weight f4 [300, 404]
00000000: 2d21 e6bd 60d4 8dbb f4c6 2dbd 5db2 663f
00000010: d069 fd3e dfc1 b83e 81b9 0d3f a6f8 a3bf
00000020: 27bc 40bf ca4b 3e3e c128 f33e 11cb b0be
00000030: 44ab d5be 0270 5bbf 3b8b 94be 612b 7e3e
00000040: 224d 753e 6035 adbe 600e 053e 858c 11bf
00000050: 4ea7 5b3f 2344 1dbf 3430 e13e ece3 f13e
00000060: f82b bfbf 6666 36bd ed92 15be 1b93 b1bf
00000070: 2a43 4e3e b3d3 093f 2ba7 473f 31f9 ee3d
00000080: ff90 4abe 7c90 84be c2cf 13c0 4eb0 3ebe
00000090: 9ae9 3abf 25a1 36c0 f500 bf3d 4887 a43d
000000a0: 98e7 8a3e eae3 34be 5200 ddbf b1d3 b73e
000000b0: 3296 84bf a325 94bf 4011 6abf bcbf 0f3f
000000c0: f82a 85bf 76d0 3abf fb02 26bf cbec 5abe
000000d0: 9706 bdbd eac1 39bf aaa6 80bf 97a7 1d3f
000000e0: 6e63 46bf 8d26 703f b41c 373e f9b2 8cbf
000000f0: 2fe9 403e 636c c4bf 65a7 8dbd b2bd 06bf
00000100: de89 b6be c85c 64be d1a8 ffbe c36c fe3d
00000110: 81b1 79bf a2db 01bf 4551 c13e dbe9 2f3f
00000120: e629 09bf 5d05 cf3c 916a 773e 99b0 91bf
00000130: 4967 6d3f 938c 1a3f ffa2 9ebf f22a 0ac0
00000140: 2219 aabf 16a1 f1be cbcf 9cbf 889e a33e
00000150: 576b 68bf ce06 2f3f a94d 8cbf 12e4 74bf
00000160: f1ef 22c0 1c58 2cbe ae00 6dbf 32da 53bf
00000170: 6ce7 c23e 39a7 efbe 364f c2bc 14d7 8fbf
00000180: bad3 c7be 10dd aabe a8f9 2d3f 8033 ecbe
00000190: 6583 ac3e d620 ecbe e25e 703e 7935 ef3e
000001a0: 50b5 4f3f 7962 0b3f 28e2 9abf 7232 04c0
000001b0: 7677 193f 9448 473f 6561 eabd bc3d 823f
000001c0: 5404 1f3f 1998 0fbe 8bc1 63bf 4243 ee3f
000001d0: 94d0 69bf baea 8f3e 7096 33be 4b71 19bf
000001e0: 2e78 0c3f 2654 1c3d 0f6b 26bf 942f e53e
000001f0: 82fc 323f a0a3 9fbf cd2c 0ebf b068 523e
00000200: c494 903f 7e66 3d3f 0f15 a2bf 2269 80bf
00000210: 3d53 cc3d 7cbc 98bf d5ff 27bf b61a 3cbe
00000220: dc99 4f3f 94e8 ab3f 1146 1cbe 8702 90bd
00000230: 5d5c 043f cf9b 06bf 7028 a43e 8e05 e03f
00000240: 33b9 9d3e 7817 46be 19a0 aebf 69a7 abbf
00000250: 9499 6f3f f33a 2fbe a480 b6bf 1d5e db3f
00000260: 4557 ef3e 0cca 603e 0197 623c 56cf cbbc
00000270: 5525 8bbf d03a 3fbf 31aa d4bf 0c51 bbbe
00000280: e6ad 3a3e 9dca cebf 3ab2 b6be 0eae 1c3e
00000290: b25e 533e 02f9 a13e 399e 41bf bd2c 74bf
000002a0: 9d3d 05bf 6eac 63bf 1986 8a3e 8dcd 2abf
000002b0: 10eb 733d f3c6 a2bf 6b1d e3be 7906 c63f
000002c0: f872 013f 4ef8 7bbf 3794 823e c17a 6fbf
000002d0: 104e 6a3e e792 16bf d989 543f 791a 01bf
000002e0: 8612 62be c588 9bbf bc23 513c b622 0b3f
000002f0: 6e2b 3a3f b189 1dc0 679b 09bf d2a3 993f
00000300: 36e1 973f d7a5 943f 80c8 343e 3720 1f3e
00000310: 0a53 b4bf ba80 f4bf 79e6 cd3f 28c7 b6bf
00000320: 9816 f1be 6cba 043f ff6f dbbd a7a7 d73d
00000330: db7d c5bf 67dd 803f 586f d5bf 81bd c0bf
00000340: 7beb 67bf 63e5 4fbd 1678 d9be de1c 9dbf
00000350: 97ed a5bf 4156 043f 850a 2dbf ce9c 823f
00000360: bb8c f7be 1688 a8be d25f 71bf 551a 51be
00000370: 6899 303e b02b cd3e b14a 94bf 255d 12bd
00000380: 7c7e ad3e 8401 c53c 8bb8 98bf 28e5 6ebf
00000390: eb84 cd3f ad63 2e3f 516a a43d 7f93 bfbf
000003a0: 50a1 a4bf 0d78 c5bd 6386 4dbc a3dc b5bd
000003b0: fd0c a43f 9d70 c4bd 6d5e 253d 8e87 9bbf
000003c0: 0b31 ecbd 636f 93bd 66ab 0840 e0c3 a2bf
000003d0: c7cc 3cbe 40f3 8bbe 3dd1 11c0 498e 90bf
000003e0: eecd b93d 5900 78bf 63c3 a3bf bba2 883e
000003f0: 872b c7be 8cb9 0f3d 17b9 723e 1fbe bb3e
-0.112367965 -0.0043282956 -0.042426065 0.9011591 0.4949479 0.36085412 0.5536118 -1.2810256
-0.752871 0.18583599 0.4749203 -0.34529927 -0.41732228 -0.85717785 -0.29012474 0.24821235
0.23955205 -0.33829784 0.12993765 -0.5685504 0.8580216 -0.61432093 0.4398209 0.47244203
-1.4935293 -0.04453125 -0.14606829 -1.3873018 0.20142809 0.5383865 0.77989453 0.11668623
-0.19781874 -0.25891483 -2.3095555 -0.18621942 -0.730127 -2.8535855 0.093263544 0.08033615
0.27129817 -0.17665067 -1.7265723 0.35903695 -1.0358336 -1.1573986 -0.9143257 0.5615194
-1.0403738 -0.72974336 -0.648483 -0.21379392 -0.092297725 -0.72561514 -1.0050862 0.61583847
-0.7749547 0.93808824 0.17882043 -1.0992118 0.18838952 -1.5345577 -0.069166936 -0.526332
-0.3565206 -0.22301018 -0.49933484 0.124230884 -0.97536474 -0.5072576 0.37757316 0.6871621
-0.53579557 0.025271112 0.24161746 -1.1382018 0.92735726 0.6037075 -1.2393492 -2.1588712
-1.328892 -0.4719321 -1.2250913 0.31956887 -0.9078879 0.6836976 -1.09612 -0.9566051
-2.5458949 -0.16830486 -0.9257916 -0.82754815 0.38067186 -0.46807268 -0.023719411 -1.1237512
-0.39028722 -0.33371782 0.6795907 -0.4613304 0.33693996 -0.46118802 0.23473695 0.46720484
0.81136036 0.5444713 -1.2100267 -2.065579 0.5994791 0.7784512 -0.11444358 1.017509
0.6211598 -0.14022864 -0.889672 1.8614275 -0.9133389 0.2810877 -0.17537856 -0.59938496
0.5487088 0.038166188 -0.6500711 0.44762862 0.69916546 -1.2471809 -0.5553711 0.20547748
1.12954 0.73984516 -1.2662677 -1.0032084 0.09976814 -1.1932521 -0.65624744 -0.18369564
0.81094146 1.3430352 -0.15261103 -0.07031732 0.51703435 -0.52581495 0.320621 1.7501695
0.30805358 -0.1934489 -1.3642608 -1.3410465 0.93593717 -0.17112331 -1.4258008 1.7138096
0.4674627 0.21952075 0.013829947 -0.024879139 -1.0870768 -0.74699116 -1.6614438 -0.3658527
0.182304 -1.6155583 -0.3568285 0.15300772 0.20641592 0.3163529 -0.75632054 -0.95380765
-0.5204714 -0.8893498 0.27055433 -0.66719896 0.059550345 -1.2716964 -0.44358382 1.5470725
0.50566053 -0.9842576 0.25503704 -0.9354668 0.22881341 -0.58817905 0.8302284 -0.5043102
-0.22077379 -1.2151114 0.012764867 0.5434984 0.7272252 -2.461529 -0.5375275 1.2003119
1.1865604 1.161311 0.1765461 0.15539633 -1.4087842 -1.9101784 1.608596 -1.4279528
-0.4708755 0.5184696 -0.10714721 0.10530024 -1.5429033 1.0067567 -1.6674604 -1.5057832
-0.9059369 -0.05075587 -0.4247443 -1.2274435 -1.2963132 0.51694113 -0.67594177 1.0204103
-0.48349556 -0.32916325 -0.94286835 -0.20420201 0.1724602 0.40072393 -1.1585294 -0.03573336
0.33885562 0.024048574 -1.1931318 -0.93318415 1.6056188 0.68120843 0.08028091 -1.4966887
-1.2861729 -0.096420385 -0.012544247 -0.08879974 1.2816464 -0.09591792 0.040373255 -1.2150743
-0.11532792 -0.0719898 2.1354613 -1.2716026 -0.18437491 -0.27334023 -2.278396 -1.1293422
0.09072481 -0.9687553 -1.2794002 0.26686653 -0.38900396 0.03508906 0.23703419 0.36668488

fc2.bias f4 [300]
00000000: 2630 44bf 1013 97c0 d4ef e23e f0f8 c83e
00000010: 53ec 86bf 7bdf 6ebe a285 52bf 76ab abbf
00000020: 8d3b d0be dbd3 cf3e 05c3 3c3f c576 42bf
00000030: 7b14 2abf ed0e 513e 5c88 4fbf be37 dbbe
00000040: 0ae5 bcbe df20 b5be 1492 87be 2645 123d
00000050: fd99 85bf fca7 1e3f e0cb 2f3f 0428 82bf
00000060: f013 f83e 3f1e 52bf 6767 16bf 62c5 8bbf
00000070: 5fc7 bd3e 1a09 62bb cf99 1fbf 3581 a13f
00000080: 401b e73e 6cee 59bf 0c1b 1bbf 824c 0abf
00000090: 3870 52bf 51f9 a0bf 5cb3 33be 7013 b8bf
000000a0: 084d 1e3d c7a0 01bf fd77 613d 20aa 7bbf
000000b0: 90e3 aabf aac1 74bf 5ea6 67bf f08e 7cbf
000000c0: 4c0f 5bbf 07c7 0bbf fd0b c73e d54c d83e
000000d0: 112a 46bf ab90 303e 5d11 fdbe e7d1 ac3e
000000e0: 9ffc 8cbf 9079 97be 3d36 87bf 7383 01bf
000000f0: 4f4a 3ebf 2bc8 1e3f 3474 073f e1dc 96c0
00000100: e4e8 f83e c40a d5bf 70fe 743d 2489 fd3d
00000110: 2298 663c fb5d 213f ede6 0abf 1e8c fc3e
00000120: accf 4fbf 459c 4cbe 61ad 1b3e a875 bf3e
00000130: 32ac b5be 98e5 393e 4a06 60bf b3db f93e
00000140: 51cd 43be 9ad4 bc3e d060 debe 6b52 9dbf
00000150: bed8 d73d 02d5 8cbf bae6 923e 7d98 92bf
00000160: 4f00 633e a705 49be a6f1 62bf 347a 93c0
00000170: 60f0 abbf 7f24 28bf c7e6 0c3e 3062 efbd
00000180: 48b6 cb3e 4f3c c33d ccea e5bd 1d23 58bf
00000190: 3f75 45bf aa69 34bf 746b d73e bb24 b73e
000001a0: be4c 1dbf 9c83 1e3f 1224 c8be e890 6e3e
000001b0: b10a 37c0 35a4 b03e 4317 5dbf b464 94c0
000001c0: 519e 93c0 0068 98c0 a0c6 52bf 53cf b9bc
000001d0: bcac 2b3f 9938 a43f dca3 35bf 307c 2dbf
000001e0: 07f7 92bf 7335 093f d646 0e3e dc0f c13f
000001f0: bd22 9abf 5d36 51bf 34a5 98c0 c0b3 2fbf
00000200: 4c11 f23e a3a2 9cbf 5951 8e3f 02e3 253f
00000210: 5064 eebe 0cfc 99c0 7d9c f5be b0fd 92c0
00000220: 1cd1 5f3f bfdf 4d3f 6248 7dc0 7fbd 9abe
00000230: 74e2 17bf e2f2 913f 1728 8abf 63fa e2bf
00000240: ab2c 073f c385 e5be 7889 11be 0a1d ae3b
00000250: 3af1 863e 9af9 0dbf 6dec da3e ff26 b43e
00000260: 84e4 35bf 4269 573e 3892 153f 5579 d8be
00000270: f645 8d3e 3dcd 02bf 1646 20bf 9faa 82bf
00000280: bc62 73bf df7e 3dbe 313a 3ebf e482 cf3e
00000290: 5527 30bf a402 be3e fe19 07bf 0536 0d3f
000002a0: 7af7 41bf a1cd 303f d94e 97c0 b100 7abf
000002b0: 6007 05bf 749b 5fbe dd74 7d3e 42f8 abbf
000002c0: 8aa7 433e 54c1 fbbe 3b37 a6bd a2eb 71bf
000002d0: a71a b83e d7da da3e 2b7c 46bf 11e2 1dbf
000002e0: 6b6e 0d3e 0ec1 88bf 64a8 c3be bcda 0f3f
000002f0: c2a9 c03e 4638 a0be 908c 63bf 7946 9bbf
00000300: ad0e 6a3f 9f2d aebf acc4 45be 7788 e7be
00000310: 91d4 25bf 34e5 9c3c b840 6dbf b83e 373e
00000320: 9cbf 2cbf d379 24bf 071b 34be d8e6 cebe
00000330: db31 f03e 3752 d9be 328e 71bf a6ee bbbf
00000340: 0ad8 2dbf 7f52 97c0 2f69 99c0 5545 43c0
00000350: 72c0 49bf 382f 083f 2a96 693d e7d4 b0be
00000360: 9119 603e 95be 11bf da14 b2bf 6550 02bf
00000370: e8b1 823e 6403 3a3f 6f02 163f 9c0c 9bbe
00000380: ac43 8ebf b153 873f feef 19bf 77eb 9dbd
00000390: 98bf 1ebf 1189 3fbf 6156 033f 0b3f b13e
000003a0: 2c74 773e 80a6 e33d 655f 3f3f bd21 aabd
000003b0: ff6d 353f 6c9d 96bf e689 263e f356 1240
000003c0: f7ab 34be c8dd d83f 7a2f f7be 6366 fbbe
000003d0: fff3 f53e 81f4 01bf cecc 16bf b5a8 39bf
000003e0: 1511 98c0 38c1 63bf 3b38 26bf fd9c f83e
000003f0: c8d5 823e d3b9 04be ed10 173e 7002 3ebf
-0.7663597 -4.721077 0.443236 0.39252424 -1.054087 -0.23327439 -0.8223516 -1.3411701
-0.40670434 0.4059132 0.73735076 -0.7596248 -0.664375 0.2041585 -0.8106744 -0.42815965
-0.36893493 -0.3537664 -0.26478636 0.035710476 -1.0437618 0.61975074 0.68670464 -1.0168462
0.4845271 -0.820774 -0.5875153 -1.0919611 0.3706617 -0.0034490288 -0.6234407 1.2617556
0.45137978 -0.8512943 -0.60588145 -0.5402299 -0.8220248 -1.2576085 -0.17548889 -1.4380932
0.03864768 -0.5063595 0.05504607 -0.98306465 -1.3350697 -0.9560801 -0.9048823 -0.98655605
-0.85570216 -0.54600567 0.38876334 0.42246118 -0.7740794 0.17242686 -0.4942731 0.33753893
-1.1014594 -0.29584932 -1.0563427 -0.505912 -0.74332136 0.6202418 0.52911687 -4.7144628
0.4861518 -1.664391 0.059812963 0.12379673 0.014074357 0.6303403 -0.54258615 0.4932565
-0.8117626 -0.19981487 0.15202858 0.37394452 -0.35482937 0.1815399 -0.87509596 0.4880043
-0.1912129 0.36880952 -0.43433237 -1.2290777 0.10539387 -1.1002505 0.28691655 -1.1452786
0.22168086 -0.19631062 -0.88649976 -4.6086674 -1.3432732 -0.6568069 0.1375991 -0.1168865
0.39787507 0.09532987 -0.112264246 -0.8442858 -0.7713203 -0.7047373 0.42074168 0.3577021
-0.61445224 0.6191957 -0.3909002 0.23297465 -2.8600276 0.3450028 -0.8636362 -4.637293
-4.6130757 -4.7626953 -0.8233433 -0.022681868 0.67060447 1.2829772 -0.70953155 -0.6776762
-1.1481637 0.5359718 0.1389421 1.5082965 -1.2041851 -0.81723577 -4.7701664 -0.6863365
0.4727882 -1.2237133 1.1118575 0.6479951 -0.46560907 -4.8120174 -0.47970954 -4.5934677
0.8742845 0.80419534 -3.957543 -0.302227 -0.59329915 1.1402247 -1.0793484 -1.7732662
0.5280253 -0.44828615 -0.14212596 0.0053135203 0.26355916 -0.55458987 0.42758504 0.35186002
-0.7105181 0.21036246 0.5842624 -0.4228007 0.27592438 -0.5109442 -0.6260694 -1.020832
-0.9507253 -0.18505429 -0.74307543 0.4052955 -0.68810016 0.3711139 -0.52774036 0.5516055
-0.75768244 0.69063765 -4.728375 -0.97657305 -0.5196438 -0.21836644 0.24751611 -1.3435137
0.1910688 -0.49170935 -0.08116003 -0.9450017 0.35957834 0.42745087 -0.77533215 -0.61673075
0.13811652 -1.0683916 -0.3821441 0.5619314 0.37629515 -0.31292933 -0.88886356 -1.2130882
0.91428643 -1.3607672 -0.19313306 -0.45221302 -0.64777476 0.019152261 -0.9267688 0.17895019
-0.6747987 -0.6424839 -0.17588435 -0.40410495 0.46913037 -0.42445537 -0.943576 -1.4682205
-0.67907774 -4.7288203 -4.79409 -3.0511067 -0.78809273 0.5319705 0.057027973 -0.34537432
0.21884753 -0.5693143 -1.3912613 -0.5090392 0.25526357 0.72661424 0.58597463 -0.30283058
-1.1114402 1.0572416 -0.60131824 -0.07710927 -0.620111 -0.7481852 0.5130368 0.3461841
0.2416541 0.11115742 0.74754936 -0.08307216 0.70870966 -1.1766791 0.16263542 2.286557
-0.17643724 1.6942682 -0.4827841 -0.49101552 0.48037717 -0.5076371 -0.5890626 -0.7252305
-4.752085 -0.88966703 -0.6492955 0.48557273 0.25553727 -0.12961511 0.1475255 -0.7422247
